{"format": "graph-model", "generatedBy": "2.11.0", "convertedBy": "TensorFlow.js Converter v2.8.0", "signature": {"inputs": {"image:0": {"name": "image:0", "dtype": "DT_FLOAT", "tensorShape": {"dim": [{"size": "-1"}, {"size": "3"}, {"size": "256"}, {"size": "192"}]}}}, "outputs": {"Identity_1:0": {"name": "Identity_1:0", "dtype": "DT_FLOAT", "tensorShape": {"dim": [{"size": "-1"}, {"size": "17"}, {"size": "-1"}, {"size": "-1"}]}}, "Identity:0": {"name": "Identity:0", "dtype": "DT_INT64", "tensorShape": {"dim": [{"size": "-1"}, {"size": "-1"}]}}}}, "modelTopology": {"node": [{"name": "PartitionedCall/Const_1737", "op": "Const", "attr": {"dtype": {"type": "DT_INT64"}, "value": {"tensor": {"dtype": "DT_INT64", "tensorShape": {"dim": [{"size": "3"}]}}}}}, {"name": "PartitionedCall/Where_98", "op": "Const", "attr": {"dtype": {"type": "DT_INT64"}, "value": {"tensor": {"dtype": "DT_INT64", "tensorShape": {"dim": [{}, {"size": "1"}]}}}}}, {"name": "PartitionedCall/Cast_208", "op": "Const", "attr": {"dtype": {"type": "DT_INT64"}, "value": {"tensor": {"dtype": "DT_INT64", "tensorShape": {"dim": [{"size": "1"}]}}}}}, {"name": "PartitionedCall/Squeeze_98", "op": "Const", "attr": {"dtype": {"type": "DT_INT64"}, "value": {"tensor": {"dtype": "DT_INT64", "tensorShape": {"dim": [{}]}}}}}, {"name": "PartitionedCall/GatherV2_98/axis", "op": "Const", "attr": {"value": {"tensor": {"dtype": "DT_INT32", "tensorShape": {}}}, "dtype": {"type": "DT_INT32"}}}, {"name": "PartitionedCall/zeros_101", "op": "Const", "attr": {"value": {"tensor": {"dtype": "DT_INT64", "tensorShape": {}}}, "dtype": {"type": "DT_INT64"}}}, {"name": "PartitionedCall/onnx_tf_prefix_p2o.ArgMax.0/dimension", "op": "Const", "attr": {"dtype": {"type": "DT_INT32"}, "value": {"tensor": {"dtype": "DT_INT32", "tensorShape": {}}}}}, {"name": "PartitionedCall/transpose_854/perm", "op": "Const", "attr": {"value": {"tensor": {"dtype": "DT_INT32", "tensorShape": {"dim": [{"size": "4"}]}}}, "dtype": {"type": "DT_INT32"}}}, {"name": "PartitionedCall/ArithmeticOptimizer/AddOpsRewrite_Leaf_0_onnx_tf_prefix_p2o.Add.128", "op": "Const", "attr": {"value": {"tensor": {"dtype": "DT_FLOAT", "tensorShape": {"dim": [{"size": "1"}, {"size": "80"}, {"size": "1"}, {"size": "1"}]}}}, "dtype": {"type": "DT_FLOAT"}}}, {"name": "PartitionedCall/Const_1690", "op": "Const", "attr": {"dtype": {"type": "DT_INT32"}, "value": {"tensor": {"dtype": "DT_INT32", "tensorShape": {"dim": [{"size": "4"}, {"size": "2"}]}}}}}, {"name": "PartitionedCall/transpose_758/perm", "op": "Const", "attr": {"value": {"tensor": {"dtype": "DT_INT32", "tensorShape": {"dim": [{"size": "4"}]}}}, "dtype": {"type": "DT_INT32"}}}, {"name": "PartitionedCall/Reshape_1030", "op": "Const", "attr": {"dtype": {"type": "DT_FLOAT"}, "value": {"tensor": {"dtype": "DT_FLOAT", "tensorShape": {"dim": [{"size": "3"}, {"size": "3"}, {"size": "40"}, {"size": "1"}]}}}}}, {"name": "PartitionedCall/transpose_759/perm", "op": "Const", "attr": {"dtype": {"type": "DT_INT32"}, "value": {"tensor": {"dtype": "DT_INT32", "tensorShape": {"dim": [{"size": "4"}]}}}}}, {"name": "PartitionedCall/onnx_tf_prefix_p2o.BatchNormalization.237/mul", "op": "Const", "attr": {"dtype": {"type": "DT_FLOAT"}, "value": {"tensor": {"dtype": "DT_FLOAT", "tensorShape": {"dim": [{"size": "1"}, {"size": "40"}, {"size": "1"}, {"size": "1"}]}}}}}, {"name": "PartitionedCall/onnx_tf_prefix_p2o.BatchNormalization.237/sub", "op": "Const", "attr": {"value": {"tensor": {"dtype": "DT_FLOAT", "tensorShape": {"dim": [{"size": "1"}, {"size": "40"}, {"size": "1"}, {"size": "1"}]}}}, "dtype": {"type": "DT_FLOAT"}}}, {"name": "PartitionedCall/transpose_761/perm", "op": "Const", "attr": {"dtype": {"type": "DT_INT32"}, "value": {"tensor": {"dtype": "DT_INT32", "tensorShape": {"dim": [{"size": "4"}]}}}}}, {"name": "PartitionedCall/split_155", "op": "Const", "attr": {"value": {"tensor": {"dtype": "DT_FLOAT", "tensorShape": {"dim": [{"size": "1"}, {"size": "1"}, {"size": "40"}, {"size": "80"}]}}}, "dtype": {"type": "DT_FLOAT"}}}, {"name": "PartitionedCall/transpose_762/perm", "op": "Const", "attr": {"dtype": {"type": "DT_INT32"}, "value": {"tensor": {"dtype": "DT_INT32", "tensorShape": {"dim": [{"size": "4"}]}}}}}, {"name": "PartitionedCall/onnx_tf_prefix_p2o.BatchNormalization.238/mul", "op": "Const", "attr": {"dtype": {"type": "DT_FLOAT"}, "value": {"tensor": {"dtype": "DT_FLOAT", "tensorShape": {"dim": [{"size": "1"}, {"size": "80"}, {"size": "1"}, {"size": "1"}]}}}}}, {"name": "PartitionedCall/transpose_766/perm", "op": "Const", "attr": {"dtype": {"type": "DT_INT32"}, "value": {"tensor": {"dtype": "DT_INT32", "tensorShape": {"dim": [{"size": "4"}]}}}}}, {"name": "PartitionedCall/strided_slice_95", "op": "Const", "attr": {"value": {"tensor": {"dtype": "DT_FLOAT", "tensorShape": {"dim": [{"size": "2"}]}}}, "dtype": {"type": "DT_FLOAT"}}}, {"name": "PartitionedCall/transpose_764/perm", "op": "Const", "attr": {"dtype": {"type": "DT_INT32"}, "value": {"tensor": {"dtype": "DT_INT32", "tensorShape": {"dim": [{"size": "4"}]}}}}}, {"name": "PartitionedCall/split_156", "op": "Const", "attr": {"dtype": {"type": "DT_FLOAT"}, "value": {"tensor": {"dtype": "DT_FLOAT", "tensorShape": {"dim": [{"size": "1"}, {"size": "1"}, {"size": "160"}, {"size": "80"}]}}}}}, {"name": "PartitionedCall/transpose_765/perm", "op": "Const", "attr": {"dtype": {"type": "DT_INT32"}, "value": {"tensor": {"dtype": "DT_INT32", "tensorShape": {"dim": [{"size": "4"}]}}}}}, {"name": "PartitionedCall/onnx_tf_prefix_p2o.BatchNormalization.239/mul", "op": "Const", "attr": {"dtype": {"type": "DT_FLOAT"}, "value": {"tensor": {"dtype": "DT_FLOAT", "tensorShape": {"dim": [{"size": "1"}, {"size": "80"}, {"size": "1"}, {"size": "1"}]}}}}}, {"name": "PartitionedCall/onnx_tf_prefix_p2o.BatchNormalization.239/sub", "op": "Const", "attr": {"dtype": {"type": "DT_FLOAT"}, "value": {"tensor": {"dtype": "DT_FLOAT", "tensorShape": {"dim": [{"size": "1"}, {"size": "80"}, {"size": "1"}, {"size": "1"}]}}}}}, {"name": "PartitionedCall/strided_slice_96/stack", "op": "Const", "attr": {"dtype": {"type": "DT_INT32"}, "value": {"tensor": {"dtype": "DT_INT32", "tensorShape": {"dim": [{"size": "1"}]}}}}}, {"name": "PartitionedCall/strided_slice_96/stack_1", "op": "Const", "attr": {"dtype": {"type": "DT_INT32"}, "value": {"tensor": {"dtype": "DT_INT32", "tensorShape": {"dim": [{"size": "1"}]}}}}}, {"name": "PartitionedCall/strided_slice_96/stack_2", "op": "Const", "attr": {"dtype": {"type": "DT_INT32"}, "value": {"tensor": {"dtype": "DT_INT32", "tensorShape": {"dim": [{"size": "1"}]}}}}}, {"name": "PartitionedCall/transpose_767/perm", "op": "Const", "attr": {"value": {"tensor": {"dtype": "DT_INT32", "tensorShape": {"dim": [{"size": "4"}]}}}, "dtype": {"type": "DT_INT32"}}}, {"name": "PartitionedCall/transpose_771/perm", "op": "Const", "attr": {"value": {"tensor": {"dtype": "DT_INT32", "tensorShape": {"dim": [{"size": "4"}]}}}, "dtype": {"type": "DT_INT32"}}}, {"name": "PartitionedCall/strided_slice_97", "op": "Const", "attr": {"dtype": {"type": "DT_FLOAT"}, "value": {"tensor": {"dtype": "DT_FLOAT", "tensorShape": {"dim": [{"size": "2"}]}}}}}, {"name": "PartitionedCall/transpose_769/perm", "op": "Const", "attr": {"dtype": {"type": "DT_INT32"}, "value": {"tensor": {"dtype": "DT_INT32", "tensorShape": {"dim": [{"size": "4"}]}}}}}, {"name": "PartitionedCall/split_157", "op": "Const", "attr": {"value": {"tensor": {"dtype": "DT_FLOAT", "tensorShape": {"dim": [{"size": "1"}, {"size": "1"}, {"size": "320"}, {"size": "80"}]}}}, "dtype": {"type": "DT_FLOAT"}}}, {"name": "PartitionedCall/transpose_770/perm", "op": "Const", "attr": {"value": {"tensor": {"dtype": "DT_INT32", "tensorShape": {"dim": [{"size": "4"}]}}}, "dtype": {"type": "DT_INT32"}}}, {"name": "PartitionedCall/onnx_tf_prefix_p2o.BatchNormalization.240/mul", "op": "Const", "attr": {"dtype": {"type": "DT_FLOAT"}, "value": {"tensor": {"dtype": "DT_FLOAT", "tensorShape": {"dim": [{"size": "1"}, {"size": "80"}, {"size": "1"}, {"size": "1"}]}}}}}, {"name": "PartitionedCall/onnx_tf_prefix_p2o.BatchNormalization.240/sub", "op": "Const", "attr": {"dtype": {"type": "DT_FLOAT"}, "value": {"tensor": {"dtype": "DT_FLOAT", "tensorShape": {"dim": [{"size": "1"}, {"size": "80"}, {"size": "1"}, {"size": "1"}]}}}}}, {"name": "PartitionedCall/strided_slice_98/stack", "op": "Const", "attr": {"dtype": {"type": "DT_INT32"}, "value": {"tensor": {"dtype": "DT_INT32", "tensorShape": {"dim": [{"size": "1"}]}}}}}, {"name": "PartitionedCall/strided_slice_98/stack_1", "op": "Const", "attr": {"value": {"tensor": {"dtype": "DT_INT32", "tensorShape": {"dim": [{"size": "1"}]}}}, "dtype": {"type": "DT_INT32"}}}, {"name": "PartitionedCall/strided_slice_98/stack_2", "op": "Const", "attr": {"value": {"tensor": {"dtype": "DT_INT32", "tensorShape": {"dim": [{"size": "1"}]}}}, "dtype": {"type": "DT_INT32"}}}, {"name": "PartitionedCall/transpose_772/perm", "op": "Const", "attr": {"dtype": {"type": "DT_INT32"}, "value": {"tensor": {"dtype": "DT_INT32", "tensorShape": {"dim": [{"size": "4"}]}}}}}, {"name": "PartitionedCall/transpose_846/perm", "op": "Const", "attr": {"dtype": {"type": "DT_INT32"}, "value": {"tensor": {"dtype": "DT_INT32", "tensorShape": {"dim": [{"size": "4"}]}}}}}, {"name": "PartitionedCall/ArithmeticOptimizer/AddOpsRewrite_Leaf_0_onnx_tf_prefix_p2o.Add.136", "op": "Const", "attr": {"value": {"tensor": {"dtype": "DT_FLOAT", "tensorShape": {"dim": [{"size": "1"}, {"size": "160"}, {"size": "1"}, {"size": "1"}]}}}, "dtype": {"type": "DT_FLOAT"}}}, {"name": "PartitionedCall/Const_1697", "op": "Const", "attr": {"dtype": {"type": "DT_INT32"}, "value": {"tensor": {"dtype": "DT_INT32", "tensorShape": {"dim": [{"size": "4"}, {"size": "2"}]}}}}}, {"name": "PartitionedCall/transpose_774/perm", "op": "Const", "attr": {"dtype": {"type": "DT_INT32"}, "value": {"tensor": {"dtype": "DT_INT32", "tensorShape": {"dim": [{"size": "4"}]}}}}}, {"name": "PartitionedCall/Reshape_1047", "op": "Const", "attr": {"value": {"tensor": {"dtype": "DT_FLOAT", "tensorShape": {"dim": [{"size": "3"}, {"size": "3"}, {"size": "40"}, {"size": "1"}]}}}, "dtype": {"type": "DT_FLOAT"}}}, {"name": "PartitionedCall/transpose_775/perm", "op": "Const", "attr": {"dtype": {"type": "DT_INT32"}, "value": {"tensor": {"dtype": "DT_INT32", "tensorShape": {"dim": [{"size": "4"}]}}}}}, {"name": "PartitionedCall/onnx_tf_prefix_p2o.BatchNormalization.241/mul", "op": "Const", "attr": {"value": {"tensor": {"dtype": "DT_FLOAT", "tensorShape": {"dim": [{"size": "1"}, {"size": "40"}, {"size": "1"}, {"size": "1"}]}}}, "dtype": {"type": "DT_FLOAT"}}}, {"name": "PartitionedCall/onnx_tf_prefix_p2o.BatchNormalization.241/sub", "op": "Const", "attr": {"value": {"tensor": {"dtype": "DT_FLOAT", "tensorShape": {"dim": [{"size": "1"}, {"size": "40"}, {"size": "1"}, {"size": "1"}]}}}, "dtype": {"type": "DT_FLOAT"}}}, {"name": "PartitionedCall/transpose_777/perm", "op": "Const", "attr": {"dtype": {"type": "DT_INT32"}, "value": {"tensor": {"dtype": "DT_INT32", "tensorShape": {"dim": [{"size": "4"}]}}}}}, {"name": "PartitionedCall/split_158", "op": "Const", "attr": {"value": {"tensor": {"dtype": "DT_FLOAT", "tensorShape": {"dim": [{"size": "1"}, {"size": "1"}, {"size": "40"}, {"size": "40"}]}}}, "dtype": {"type": "DT_FLOAT"}}}, {"name": "PartitionedCall/transpose_778/perm", "op": "Const", "attr": {"dtype": {"type": "DT_INT32"}, "value": {"tensor": {"dtype": "DT_INT32", "tensorShape": {"dim": [{"size": "4"}]}}}}}, {"name": "PartitionedCall/onnx_tf_prefix_p2o.BatchNormalization.242/mul", "op": "Const", "attr": {"value": {"tensor": {"dtype": "DT_FLOAT", "tensorShape": {"dim": [{"size": "1"}, {"size": "40"}, {"size": "1"}, {"size": "1"}]}}}, "dtype": {"type": "DT_FLOAT"}}}, {"name": "PartitionedCall/onnx_tf_prefix_p2o.BatchNormalization.242/sub", "op": "Const", "attr": {"dtype": {"type": "DT_FLOAT"}, "value": {"tensor": {"dtype": "DT_FLOAT", "tensorShape": {"dim": [{"size": "1"}, {"size": "40"}, {"size": "1"}, {"size": "1"}]}}}}}, {"name": "PartitionedCall/Const_1698", "op": "Const", "attr": {"value": {"tensor": {"dtype": "DT_INT32", "tensorShape": {"dim": [{"size": "4"}, {"size": "2"}]}}}, "dtype": {"type": "DT_INT32"}}}, {"name": "PartitionedCall/transpose_780/perm", "op": "Const", "attr": {"value": {"tensor": {"dtype": "DT_INT32", "tensorShape": {"dim": [{"size": "4"}]}}}, "dtype": {"type": "DT_INT32"}}}, {"name": "PartitionedCall/Reshape_1056", "op": "Const", "attr": {"dtype": {"type": "DT_FLOAT"}, "value": {"tensor": {"dtype": "DT_FLOAT", "tensorShape": {"dim": [{"size": "3"}, {"size": "3"}, {"size": "40"}, {"size": "1"}]}}}}}, {"name": "PartitionedCall/transpose_781/perm", "op": "Const", "attr": {"dtype": {"type": "DT_INT32"}, "value": {"tensor": {"dtype": "DT_INT32", "tensorShape": {"dim": [{"size": "4"}]}}}}}, {"name": "PartitionedCall/onnx_tf_prefix_p2o.BatchNormalization.243/mul", "op": "Const", "attr": {"value": {"tensor": {"dtype": "DT_FLOAT", "tensorShape": {"dim": [{"size": "1"}, {"size": "40"}, {"size": "1"}, {"size": "1"}]}}}, "dtype": {"type": "DT_FLOAT"}}}, {"name": "PartitionedCall/onnx_tf_prefix_p2o.BatchNormalization.243/sub", "op": "Const", "attr": {"dtype": {"type": "DT_FLOAT"}, "value": {"tensor": {"dtype": "DT_FLOAT", "tensorShape": {"dim": [{"size": "1"}, {"size": "40"}, {"size": "1"}, {"size": "1"}]}}}}}, {"name": "PartitionedCall/transpose_783/perm", "op": "Const", "attr": {"dtype": {"type": "DT_INT32"}, "value": {"tensor": {"dtype": "DT_INT32", "tensorShape": {"dim": [{"size": "4"}]}}}}}, {"name": "PartitionedCall/split_159", "op": "Const", "attr": {"value": {"tensor": {"dtype": "DT_FLOAT", "tensorShape": {"dim": [{"size": "1"}, {"size": "1"}, {"size": "40"}, {"size": "160"}]}}}, "dtype": {"type": "DT_FLOAT"}}}, {"name": "PartitionedCall/transpose_784/perm", "op": "Const", "attr": {"dtype": {"type": "DT_INT32"}, "value": {"tensor": {"dtype": "DT_INT32", "tensorShape": {"dim": [{"size": "4"}]}}}}}, {"name": "PartitionedCall/onnx_tf_prefix_p2o.BatchNormalization.244/mul", "op": "Const", "attr": {"dtype": {"type": "DT_FLOAT"}, "value": {"tensor": {"dtype": "DT_FLOAT", "tensorShape": {"dim": [{"size": "1"}, {"size": "160"}, {"size": "1"}, {"size": "1"}]}}}}}, {"name": "PartitionedCall/Const_1699", "op": "Const", "attr": {"value": {"tensor": {"dtype": "DT_INT32", "tensorShape": {"dim": [{"size": "4"}, {"size": "2"}]}}}, "dtype": {"type": "DT_INT32"}}}, {"name": "PartitionedCall/transpose_786/perm", "op": "Const", "attr": {"dtype": {"type": "DT_INT32"}, "value": {"tensor": {"dtype": "DT_INT32", "tensorShape": {"dim": [{"size": "4"}]}}}}}, {"name": "PartitionedCall/Reshape_1065", "op": "Const", "attr": {"dtype": {"type": "DT_FLOAT"}, "value": {"tensor": {"dtype": "DT_FLOAT", "tensorShape": {"dim": [{"size": "3"}, {"size": "3"}, {"size": "80"}, {"size": "1"}]}}}}}, {"name": "PartitionedCall/transpose_787/perm", "op": "Const", "attr": {"dtype": {"type": "DT_INT32"}, "value": {"tensor": {"dtype": "DT_INT32", "tensorShape": {"dim": [{"size": "4"}]}}}}}, {"name": "PartitionedCall/onnx_tf_prefix_p2o.BatchNormalization.245/mul", "op": "Const", "attr": {"dtype": {"type": "DT_FLOAT"}, "value": {"tensor": {"dtype": "DT_FLOAT", "tensorShape": {"dim": [{"size": "1"}, {"size": "80"}, {"size": "1"}, {"size": "1"}]}}}}}, {"name": "PartitionedCall/onnx_tf_prefix_p2o.BatchNormalization.245/sub", "op": "Const", "attr": {"dtype": {"type": "DT_FLOAT"}, "value": {"tensor": {"dtype": "DT_FLOAT", "tensorShape": {"dim": [{"size": "1"}, {"size": "80"}, {"size": "1"}, {"size": "1"}]}}}}}, {"name": "PartitionedCall/transpose_789/perm", "op": "Const", "attr": {"value": {"tensor": {"dtype": "DT_INT32", "tensorShape": {"dim": [{"size": "4"}]}}}, "dtype": {"type": "DT_INT32"}}}, {"name": "PartitionedCall/split_160", "op": "Const", "attr": {"dtype": {"type": "DT_FLOAT"}, "value": {"tensor": {"dtype": "DT_FLOAT", "tensorShape": {"dim": [{"size": "1"}, {"size": "1"}, {"size": "80"}, {"size": "160"}]}}}}}, {"name": "PartitionedCall/transpose_790/perm", "op": "Const", "attr": {"dtype": {"type": "DT_INT32"}, "value": {"tensor": {"dtype": "DT_INT32", "tensorShape": {"dim": [{"size": "4"}]}}}}}, {"name": "PartitionedCall/onnx_tf_prefix_p2o.BatchNormalization.246/mul", "op": "Const", "attr": {"dtype": {"type": "DT_FLOAT"}, "value": {"tensor": {"dtype": "DT_FLOAT", "tensorShape": {"dim": [{"size": "1"}, {"size": "160"}, {"size": "1"}, {"size": "1"}]}}}}}, {"name": "PartitionedCall/onnx_tf_prefix_p2o.BatchNormalization.246/sub", "op": "Const", "attr": {"value": {"tensor": {"dtype": "DT_FLOAT", "tensorShape": {"dim": [{"size": "1"}, {"size": "160"}, {"size": "1"}, {"size": "1"}]}}}, "dtype": {"type": "DT_FLOAT"}}}, {"name": "PartitionedCall/transpose_794/perm", "op": "Const", "attr": {"value": {"tensor": {"dtype": "DT_INT32", "tensorShape": {"dim": [{"size": "4"}]}}}, "dtype": {"type": "DT_INT32"}}}, {"name": "PartitionedCall/strided_slice_99", "op": "Const", "attr": {"dtype": {"type": "DT_FLOAT"}, "value": {"tensor": {"dtype": "DT_FLOAT", "tensorShape": {"dim": [{"size": "2"}]}}}}}, {"name": "PartitionedCall/transpose_792/perm", "op": "Const", "attr": {"dtype": {"type": "DT_INT32"}, "value": {"tensor": {"dtype": "DT_INT32", "tensorShape": {"dim": [{"size": "4"}]}}}}}, {"name": "PartitionedCall/split_161", "op": "Const", "attr": {"value": {"tensor": {"dtype": "DT_FLOAT", "tensorShape": {"dim": [{"size": "1"}, {"size": "1"}, {"size": "320"}, {"size": "160"}]}}}, "dtype": {"type": "DT_FLOAT"}}}, {"name": "PartitionedCall/transpose_793/perm", "op": "Const", "attr": {"dtype": {"type": "DT_INT32"}, "value": {"tensor": {"dtype": "DT_INT32", "tensorShape": {"dim": [{"size": "4"}]}}}}}, {"name": "PartitionedCall/onnx_tf_prefix_p2o.BatchNormalization.247/mul", "op": "Const", "attr": {"dtype": {"type": "DT_FLOAT"}, "value": {"tensor": {"dtype": "DT_FLOAT", "tensorShape": {"dim": [{"size": "1"}, {"size": "160"}, {"size": "1"}, {"size": "1"}]}}}}}, {"name": "PartitionedCall/onnx_tf_prefix_p2o.BatchNormalization.247/sub", "op": "Const", "attr": {"dtype": {"type": "DT_FLOAT"}, "value": {"tensor": {"dtype": "DT_FLOAT", "tensorShape": {"dim": [{"size": "1"}, {"size": "160"}, {"size": "1"}, {"size": "1"}]}}}}}, {"name": "PartitionedCall/strided_slice_100/stack", "op": "Const", "attr": {"dtype": {"type": "DT_INT32"}, "value": {"tensor": {"dtype": "DT_INT32", "tensorShape": {"dim": [{"size": "1"}]}}}}}, {"name": "PartitionedCall/strided_slice_100/stack_1", "op": "Const", "attr": {"value": {"tensor": {"dtype": "DT_INT32", "tensorShape": {"dim": [{"size": "1"}]}}}, "dtype": {"type": "DT_INT32"}}}, {"name": "PartitionedCall/strided_slice_100/stack_2", "op": "Const", "attr": {"dtype": {"type": "DT_INT32"}, "value": {"tensor": {"dtype": "DT_INT32", "tensorShape": {"dim": [{"size": "1"}]}}}}}, {"name": "PartitionedCall/transpose_795/perm", "op": "Const", "attr": {"dtype": {"type": "DT_INT32"}, "value": {"tensor": {"dtype": "DT_INT32", "tensorShape": {"dim": [{"size": "4"}]}}}}}, {"name": "PartitionedCall/transpose_838/perm", "op": "Const", "attr": {"value": {"tensor": {"dtype": "DT_INT32", "tensorShape": {"dim": [{"size": "4"}]}}}, "dtype": {"type": "DT_INT32"}}}, {"name": "PartitionedCall/ArithmeticOptimizer/AddOpsRewrite_Leaf_0_onnx_tf_prefix_p2o.Add.144", "op": "Const", "attr": {"dtype": {"type": "DT_FLOAT"}, "value": {"tensor": {"dtype": "DT_FLOAT", "tensorShape": {"dim": [{"size": "1"}, {"size": "320"}, {"size": "1"}, {"size": "1"}]}}}}}, {"name": "PartitionedCall/Const_1649", "op": "Const", "attr": {"dtype": {"type": "DT_INT64"}, "value": {"tensor": {"dtype": "DT_INT64", "tensorShape": {"dim": [{"size": "4"}]}}}}}, {"name": "PartitionedCall/Where_85", "op": "Const", "attr": {"dtype": {"type": "DT_INT64"}, "value": {"tensor": {"dtype": "DT_INT64", "tensorShape": {"dim": [{}, {"size": "1"}]}}}}}, {"name": "PartitionedCall/Cast_168", "op": "Const", "attr": {"dtype": {"type": "DT_INT64"}, "value": {"tensor": {"dtype": "DT_INT64", "tensorShape": {"dim": [{"size": "1"}]}}}}}, {"name": "PartitionedCall/Const_1647", "op": "Const", "attr": {"dtype": {"type": "DT_INT64"}, "value": {"tensor": {"dtype": "DT_INT64", "tensorShape": {"dim": [{"size": "5"}]}}}}}, {"name": "PartitionedCall/Where_84", "op": "Const", "attr": {"dtype": {"type": "DT_INT64"}, "value": {"tensor": {"dtype": "DT_INT64", "tensorShape": {"dim": [{}, {"size": "1"}]}}}}}, {"name": "PartitionedCall/Cast_167", "op": "Const", "attr": {"dtype": {"type": "DT_INT64"}, "value": {"tensor": {"dtype": "DT_INT64", "tensorShape": {"dim": [{"size": "1"}]}}}}}, {"name": "PartitionedCall/Const_1644", "op": "Const", "attr": {"value": {"tensor": {"dtype": "DT_INT64", "tensorShape": {"dim": [{"size": "4"}]}}}, "dtype": {"type": "DT_INT64"}}}, {"name": "PartitionedCall/Where_83", "op": "Const", "attr": {"value": {"tensor": {"dtype": "DT_INT64", "tensorShape": {"dim": [{}, {"size": "1"}]}}}, "dtype": {"type": "DT_INT64"}}}, {"name": "PartitionedCall/Cast_165", "op": "Const", "attr": {"dtype": {"type": "DT_INT64"}, "value": {"tensor": {"dtype": "DT_INT64", "tensorShape": {"dim": [{"size": "1"}]}}}}}, {"name": "PartitionedCall/Const_1642", "op": "Const", "attr": {"dtype": {"type": "DT_INT64"}, "value": {"tensor": {"dtype": "DT_INT64", "tensorShape": {"dim": [{"size": "5"}]}}}}}, {"name": "PartitionedCall/Where_82", "op": "Const", "attr": {"dtype": {"type": "DT_INT64"}, "value": {"tensor": {"dtype": "DT_INT64", "tensorShape": {"dim": [{}, {"size": "1"}]}}}}}, {"name": "PartitionedCall/Cast_164", "op": "Const", "attr": {"dtype": {"type": "DT_INT64"}, "value": {"tensor": {"dtype": "DT_INT64", "tensorShape": {"dim": [{"size": "1"}]}}}}}, {"name": "PartitionedCall/strided_slice_81/stack", "op": "Const", "attr": {"dtype": {"type": "DT_INT32"}, "value": {"tensor": {"dtype": "DT_INT32", "tensorShape": {"dim": [{"size": "1"}]}}}}}, {"name": "PartitionedCall/strided_slice_81/stack_1", "op": "Const", "attr": {"dtype": {"type": "DT_INT32"}, "value": {"tensor": {"dtype": "DT_INT32", "tensorShape": {"dim": [{"size": "1"}]}}}}}, {"name": "PartitionedCall/strided_slice_81/stack_2", "op": "Const", "attr": {"dtype": {"type": "DT_INT32"}, "value": {"tensor": {"dtype": "DT_INT32", "tensorShape": {"dim": [{"size": "1"}]}}}}}, {"name": "ConstantFolding/PartitionedCall/truediv_41_recip", "op": "Const", "attr": {"dtype": {"type": "DT_DOUBLE"}, "value": {"tensor": {"dtype": "DT_DOUBLE", "tensorShape": {}}}}}, {"name": "PartitionedCall/onnx_tf_prefix_p2o.Split.41/split_dim", "op": "Const", "attr": {"dtype": {"type": "DT_INT32"}, "value": {"tensor": {"dtype": "DT_INT32", "tensorShape": {}}}}}, {"name": "PartitionedCall/transpose_671/perm", "op": "Const", "attr": {"dtype": {"type": "DT_INT32"}, "value": {"tensor": {"dtype": "DT_INT32", "tensorShape": {"dim": [{"size": "4"}]}}}}}, {"name": "PartitionedCall/split_136", "op": "Const", "attr": {"dtype": {"type": "DT_FLOAT"}, "value": {"tensor": {"dtype": "DT_FLOAT", "tensorShape": {"dim": [{"size": "1"}, {"size": "1"}, {"size": "20"}, {"size": "20"}]}}}}}, {"name": "PartitionedCall/transpose_672/perm", "op": "Const", "attr": {"dtype": {"type": "DT_INT32"}, "value": {"tensor": {"dtype": "DT_INT32", "tensorShape": {"dim": [{"size": "4"}]}}}}}, {"name": "PartitionedCall/onnx_tf_prefix_p2o.BatchNormalization.210/mul", "op": "Const", "attr": {"dtype": {"type": "DT_FLOAT"}, "value": {"tensor": {"dtype": "DT_FLOAT", "tensorShape": {"dim": [{"size": "1"}, {"size": "20"}, {"size": "1"}, {"size": "1"}]}}}}}, {"name": "PartitionedCall/onnx_tf_prefix_p2o.BatchNormalization.210/sub", "op": "Const", "attr": {"dtype": {"type": "DT_FLOAT"}, "value": {"tensor": {"dtype": "DT_FLOAT", "tensorShape": {"dim": [{"size": "1"}, {"size": "20"}, {"size": "1"}, {"size": "1"}]}}}}}, {"name": "PartitionedCall/Const_1641", "op": "Const", "attr": {"dtype": {"type": "DT_INT32"}, "value": {"tensor": {"dtype": "DT_INT32", "tensorShape": {"dim": [{"size": "4"}, {"size": "2"}]}}}}}, {"name": "PartitionedCall/transpose_674/perm", "op": "Const", "attr": {"value": {"tensor": {"dtype": "DT_INT32", "tensorShape": {"dim": [{"size": "4"}]}}}, "dtype": {"type": "DT_INT32"}}}, {"name": "PartitionedCall/Reshape_918", "op": "Const", "attr": {"dtype": {"type": "DT_FLOAT"}, "value": {"tensor": {"dtype": "DT_FLOAT", "tensorShape": {"dim": [{"size": "3"}, {"size": "3"}, {"size": "20"}, {"size": "1"}]}}}}}, {"name": "PartitionedCall/transpose_675/perm", "op": "Const", "attr": {"dtype": {"type": "DT_INT32"}, "value": {"tensor": {"dtype": "DT_INT32", "tensorShape": {"dim": [{"size": "4"}]}}}}}, {"name": "PartitionedCall/onnx_tf_prefix_p2o.BatchNormalization.211/mul", "op": "Const", "attr": {"dtype": {"type": "DT_FLOAT"}, "value": {"tensor": {"dtype": "DT_FLOAT", "tensorShape": {"dim": [{"size": "1"}, {"size": "20"}, {"size": "1"}, {"size": "1"}]}}}}}, {"name": "PartitionedCall/onnx_tf_prefix_p2o.BatchNormalization.211/sub", "op": "Const", "attr": {"dtype": {"type": "DT_FLOAT"}, "value": {"tensor": {"dtype": "DT_FLOAT", "tensorShape": {"dim": [{"size": "1"}, {"size": "20"}, {"size": "1"}, {"size": "1"}]}}}}}, {"name": "PartitionedCall/transpose_677/perm", "op": "Const", "attr": {"dtype": {"type": "DT_INT32"}, "value": {"tensor": {"dtype": "DT_INT32", "tensorShape": {"dim": [{"size": "4"}]}}}}}, {"name": "PartitionedCall/split_137", "op": "Const", "attr": {"dtype": {"type": "DT_FLOAT"}, "value": {"tensor": {"dtype": "DT_FLOAT", "tensorShape": {"dim": [{"size": "1"}, {"size": "1"}, {"size": "20"}, {"size": "20"}]}}}}}, {"name": "PartitionedCall/transpose_678/perm", "op": "Const", "attr": {"dtype": {"type": "DT_INT32"}, "value": {"tensor": {"dtype": "DT_INT32", "tensorShape": {"dim": [{"size": "4"}]}}}}}, {"name": "PartitionedCall/onnx_tf_prefix_p2o.BatchNormalization.212/mul", "op": "Const", "attr": {"dtype": {"type": "DT_FLOAT"}, "value": {"tensor": {"dtype": "DT_FLOAT", "tensorShape": {"dim": [{"size": "1"}, {"size": "20"}, {"size": "1"}, {"size": "1"}]}}}}}, {"name": "PartitionedCall/onnx_tf_prefix_p2o.BatchNormalization.212/sub", "op": "Const", "attr": {"dtype": {"type": "DT_FLOAT"}, "value": {"tensor": {"dtype": "DT_FLOAT", "tensorShape": {"dim": [{"size": "1"}, {"size": "20"}, {"size": "1"}, {"size": "1"}]}}}}}, {"name": "PartitionedCall/onnx_tf_prefix_p2o.Concat.82/axis", "op": "Const", "attr": {"value": {"tensor": {"dtype": "DT_INT32", "tensorShape": {}}}, "dtype": {"type": "DT_INT32"}}}, {"name": "PartitionedCall/Squeeze_82", "op": "Const", "attr": {"value": {"tensor": {"dtype": "DT_INT64", "tensorShape": {"dim": [{}]}}}, "dtype": {"type": "DT_INT64"}}}, {"name": "PartitionedCall/GatherV2_82/axis", "op": "Const", "attr": {"dtype": {"type": "DT_INT32"}, "value": {"tensor": {"dtype": "DT_INT32", "tensorShape": {}}}}}, {"name": "PartitionedCall/zeros_82", "op": "Const", "attr": {"value": {"tensor": {"dtype": "DT_INT64", "tensorShape": {}}}, "dtype": {"type": "DT_INT64"}}}, {"name": "PartitionedCall/onnx_tf_prefix_p2o.Transpose.41/perm", "op": "Const", "attr": {"dtype": {"type": "DT_INT32"}, "value": {"tensor": {"dtype": "DT_INT32", "tensorShape": {"dim": [{"size": "5"}]}}}}}, {"name": "PartitionedCall/Squeeze_83", "op": "Const", "attr": {"dtype": {"type": "DT_INT64"}, "value": {"tensor": {"dtype": "DT_INT64", "tensorShape": {"dim": [{}]}}}}}, {"name": "PartitionedCall/GatherV2_83/axis", "op": "Const", "attr": {"dtype": {"type": "DT_INT32"}, "value": {"tensor": {"dtype": "DT_INT32", "tensorShape": {}}}}}, {"name": "PartitionedCall/zeros_83", "op": "Const", "attr": {"value": {"tensor": {"dtype": "DT_INT64", "tensorShape": {}}}, "dtype": {"type": "DT_INT64"}}}, {"name": "PartitionedCall/strided_slice_82/stack", "op": "Const", "attr": {"dtype": {"type": "DT_INT32"}, "value": {"tensor": {"dtype": "DT_INT32", "tensorShape": {"dim": [{"size": "1"}]}}}}}, {"name": "PartitionedCall/strided_slice_82/stack_1", "op": "Const", "attr": {"dtype": {"type": "DT_INT32"}, "value": {"tensor": {"dtype": "DT_INT32", "tensorShape": {"dim": [{"size": "1"}]}}}}}, {"name": "PartitionedCall/strided_slice_82/stack_2", "op": "Const", "attr": {"dtype": {"type": "DT_INT32"}, "value": {"tensor": {"dtype": "DT_INT32", "tensorShape": {"dim": [{"size": "1"}]}}}}}, {"name": "ConstantFolding/PartitionedCall/truediv_42_recip", "op": "Const", "attr": {"dtype": {"type": "DT_DOUBLE"}, "value": {"tensor": {"dtype": "DT_DOUBLE", "tensorShape": {}}}}}, {"name": "PartitionedCall/onnx_tf_prefix_p2o.Split.42/split_dim", "op": "Const", "attr": {"value": {"tensor": {"dtype": "DT_INT32", "tensorShape": {}}}, "dtype": {"type": "DT_INT32"}}}, {"name": "PartitionedCall/transpose_680/perm", "op": "Const", "attr": {"value": {"tensor": {"dtype": "DT_INT32", "tensorShape": {"dim": [{"size": "4"}]}}}, "dtype": {"type": "DT_INT32"}}}, {"name": "PartitionedCall/split_138", "op": "Const", "attr": {"dtype": {"type": "DT_FLOAT"}, "value": {"tensor": {"dtype": "DT_FLOAT", "tensorShape": {"dim": [{"size": "1"}, {"size": "1"}, {"size": "20"}, {"size": "20"}]}}}}}, {"name": "PartitionedCall/transpose_681/perm", "op": "Const", "attr": {"dtype": {"type": "DT_INT32"}, "value": {"tensor": {"dtype": "DT_INT32", "tensorShape": {"dim": [{"size": "4"}]}}}}}, {"name": "PartitionedCall/onnx_tf_prefix_p2o.BatchNormalization.213/mul", "op": "Const", "attr": {"dtype": {"type": "DT_FLOAT"}, "value": {"tensor": {"dtype": "DT_FLOAT", "tensorShape": {"dim": [{"size": "1"}, {"size": "20"}, {"size": "1"}, {"size": "1"}]}}}}}, {"name": "PartitionedCall/onnx_tf_prefix_p2o.BatchNormalization.213/sub", "op": "Const", "attr": {"dtype": {"type": "DT_FLOAT"}, "value": {"tensor": {"dtype": "DT_FLOAT", "tensorShape": {"dim": [{"size": "1"}, {"size": "20"}, {"size": "1"}, {"size": "1"}]}}}}}, {"name": "PartitionedCall/Const_1646", "op": "Const", "attr": {"value": {"tensor": {"dtype": "DT_INT32", "tensorShape": {"dim": [{"size": "4"}, {"size": "2"}]}}}, "dtype": {"type": "DT_INT32"}}}, {"name": "PartitionedCall/transpose_683/perm", "op": "Const", "attr": {"dtype": {"type": "DT_INT32"}, "value": {"tensor": {"dtype": "DT_INT32", "tensorShape": {"dim": [{"size": "4"}]}}}}}, {"name": "PartitionedCall/Reshape_931", "op": "Const", "attr": {"dtype": {"type": "DT_FLOAT"}, "value": {"tensor": {"dtype": "DT_FLOAT", "tensorShape": {"dim": [{"size": "3"}, {"size": "3"}, {"size": "20"}, {"size": "1"}]}}}}}, {"name": "PartitionedCall/transpose_684/perm", "op": "Const", "attr": {"value": {"tensor": {"dtype": "DT_INT32", "tensorShape": {"dim": [{"size": "4"}]}}}, "dtype": {"type": "DT_INT32"}}}, {"name": "PartitionedCall/onnx_tf_prefix_p2o.BatchNormalization.214/mul", "op": "Const", "attr": {"dtype": {"type": "DT_FLOAT"}, "value": {"tensor": {"dtype": "DT_FLOAT", "tensorShape": {"dim": [{"size": "1"}, {"size": "20"}, {"size": "1"}, {"size": "1"}]}}}}}, {"name": "PartitionedCall/onnx_tf_prefix_p2o.BatchNormalization.214/sub", "op": "Const", "attr": {"value": {"tensor": {"dtype": "DT_FLOAT", "tensorShape": {"dim": [{"size": "1"}, {"size": "20"}, {"size": "1"}, {"size": "1"}]}}}, "dtype": {"type": "DT_FLOAT"}}}, {"name": "PartitionedCall/transpose_686/perm", "op": "Const", "attr": {"value": {"tensor": {"dtype": "DT_INT32", "tensorShape": {"dim": [{"size": "4"}]}}}, "dtype": {"type": "DT_INT32"}}}, {"name": "PartitionedCall/split_139", "op": "Const", "attr": {"value": {"tensor": {"dtype": "DT_FLOAT", "tensorShape": {"dim": [{"size": "1"}, {"size": "1"}, {"size": "20"}, {"size": "20"}]}}}, "dtype": {"type": "DT_FLOAT"}}}, {"name": "PartitionedCall/transpose_687/perm", "op": "Const", "attr": {"value": {"tensor": {"dtype": "DT_INT32", "tensorShape": {"dim": [{"size": "4"}]}}}, "dtype": {"type": "DT_INT32"}}}, {"name": "PartitionedCall/onnx_tf_prefix_p2o.BatchNormalization.215/mul", "op": "Const", "attr": {"dtype": {"type": "DT_FLOAT"}, "value": {"tensor": {"dtype": "DT_FLOAT", "tensorShape": {"dim": [{"size": "1"}, {"size": "20"}, {"size": "1"}, {"size": "1"}]}}}}}, {"name": "PartitionedCall/onnx_tf_prefix_p2o.BatchNormalization.215/sub", "op": "Const", "attr": {"dtype": {"type": "DT_FLOAT"}, "value": {"tensor": {"dtype": "DT_FLOAT", "tensorShape": {"dim": [{"size": "1"}, {"size": "20"}, {"size": "1"}, {"size": "1"}]}}}}}, {"name": "PartitionedCall/onnx_tf_prefix_p2o.Concat.84/axis", "op": "Const", "attr": {"dtype": {"type": "DT_INT32"}, "value": {"tensor": {"dtype": "DT_INT32", "tensorShape": {}}}}}, {"name": "PartitionedCall/Squeeze_84", "op": "Const", "attr": {"value": {"tensor": {"dtype": "DT_INT64", "tensorShape": {"dim": [{}]}}}, "dtype": {"type": "DT_INT64"}}}, {"name": "PartitionedCall/GatherV2_84/axis", "op": "Const", "attr": {"dtype": {"type": "DT_INT32"}, "value": {"tensor": {"dtype": "DT_INT32", "tensorShape": {}}}}}, {"name": "PartitionedCall/zeros_84", "op": "Const", "attr": {"dtype": {"type": "DT_INT64"}, "value": {"tensor": {"dtype": "DT_INT64", "tensorShape": {}}}}}, {"name": "PartitionedCall/onnx_tf_prefix_p2o.Transpose.42/perm", "op": "Const", "attr": {"value": {"tensor": {"dtype": "DT_INT32", "tensorShape": {"dim": [{"size": "5"}]}}}, "dtype": {"type": "DT_INT32"}}}, {"name": "PartitionedCall/Squeeze_85", "op": "Const", "attr": {"value": {"tensor": {"dtype": "DT_INT64", "tensorShape": {"dim": [{}]}}}, "dtype": {"type": "DT_INT64"}}}, {"name": "PartitionedCall/GatherV2_85/axis", "op": "Const", "attr": {"value": {"tensor": {"dtype": "DT_INT32", "tensorShape": {}}}, "dtype": {"type": "DT_INT32"}}}, {"name": "PartitionedCall/zeros_85", "op": "Const", "attr": {"dtype": {"type": "DT_INT64"}, "value": {"tensor": {"dtype": "DT_INT64", "tensorShape": {}}}}}, {"name": "PartitionedCall/transpose_745/perm", "op": "Const", "attr": {"dtype": {"type": "DT_INT32"}, "value": {"tensor": {"dtype": "DT_INT32", "tensorShape": {"dim": [{"size": "4"}]}}}}}, {"name": "PartitionedCall/strided_slice_89", "op": "Const", "attr": {"dtype": {"type": "DT_FLOAT"}, "value": {"tensor": {"dtype": "DT_FLOAT", "tensorShape": {"dim": [{"size": "2"}]}}}}}, {"name": "PartitionedCall/transpose_743/perm", "op": "Const", "attr": {"dtype": {"type": "DT_INT32"}, "value": {"tensor": {"dtype": "DT_INT32", "tensorShape": {"dim": [{"size": "4"}]}}}}}, {"name": "PartitionedCall/split_152", "op": "Const", "attr": {"value": {"tensor": {"dtype": "DT_FLOAT", "tensorShape": {"dim": [{"size": "1"}, {"size": "1"}, {"size": "80"}, {"size": "40"}]}}}, "dtype": {"type": "DT_FLOAT"}}}, {"name": "PartitionedCall/transpose_744/perm", "op": "Const", "attr": {"value": {"tensor": {"dtype": "DT_INT32", "tensorShape": {"dim": [{"size": "4"}]}}}, "dtype": {"type": "DT_INT32"}}}, {"name": "PartitionedCall/onnx_tf_prefix_p2o.BatchNormalization.234/mul", "op": "Const", "attr": {"value": {"tensor": {"dtype": "DT_FLOAT", "tensorShape": {"dim": [{"size": "1"}, {"size": "40"}, {"size": "1"}, {"size": "1"}]}}}, "dtype": {"type": "DT_FLOAT"}}}, {"name": "PartitionedCall/onnx_tf_prefix_p2o.BatchNormalization.234/sub", "op": "Const", "attr": {"dtype": {"type": "DT_FLOAT"}, "value": {"tensor": {"dtype": "DT_FLOAT", "tensorShape": {"dim": [{"size": "1"}, {"size": "40"}, {"size": "1"}, {"size": "1"}]}}}}}, {"name": "PartitionedCall/strided_slice_90/stack", "op": "Const", "attr": {"value": {"tensor": {"dtype": "DT_INT32", "tensorShape": {"dim": [{"size": "1"}]}}}, "dtype": {"type": "DT_INT32"}}}, {"name": "PartitionedCall/strided_slice_90/stack_1", "op": "Const", "attr": {"dtype": {"type": "DT_INT32"}, "value": {"tensor": {"dtype": "DT_INT32", "tensorShape": {"dim": [{"size": "1"}]}}}}}, {"name": "PartitionedCall/strided_slice_90/stack_2", "op": "Const", "attr": {"dtype": {"type": "DT_INT32"}, "value": {"tensor": {"dtype": "DT_INT32", "tensorShape": {"dim": [{"size": "1"}]}}}}}, {"name": "PartitionedCall/transpose_746/perm", "op": "Const", "attr": {"value": {"tensor": {"dtype": "DT_INT32", "tensorShape": {"dim": [{"size": "4"}]}}}, "dtype": {"type": "DT_INT32"}}}, {"name": "PartitionedCall/transpose_750/perm", "op": "Const", "attr": {"value": {"tensor": {"dtype": "DT_INT32", "tensorShape": {"dim": [{"size": "4"}]}}}, "dtype": {"type": "DT_INT32"}}}, {"name": "PartitionedCall/strided_slice_91", "op": "Const", "attr": {"dtype": {"type": "DT_FLOAT"}, "value": {"tensor": {"dtype": "DT_FLOAT", "tensorShape": {"dim": [{"size": "2"}]}}}}}, {"name": "PartitionedCall/transpose_748/perm", "op": "Const", "attr": {"value": {"tensor": {"dtype": "DT_INT32", "tensorShape": {"dim": [{"size": "4"}]}}}, "dtype": {"type": "DT_INT32"}}}, {"name": "PartitionedCall/split_153", "op": "Const", "attr": {"dtype": {"type": "DT_FLOAT"}, "value": {"tensor": {"dtype": "DT_FLOAT", "tensorShape": {"dim": [{"size": "1"}, {"size": "1"}, {"size": "160"}, {"size": "40"}]}}}}}, {"name": "PartitionedCall/transpose_749/perm", "op": "Const", "attr": {"dtype": {"type": "DT_INT32"}, "value": {"tensor": {"dtype": "DT_INT32", "tensorShape": {"dim": [{"size": "4"}]}}}}}, {"name": "PartitionedCall/onnx_tf_prefix_p2o.BatchNormalization.235/mul", "op": "Const", "attr": {"value": {"tensor": {"dtype": "DT_FLOAT", "tensorShape": {"dim": [{"size": "1"}, {"size": "40"}, {"size": "1"}, {"size": "1"}]}}}, "dtype": {"type": "DT_FLOAT"}}}, {"name": "PartitionedCall/onnx_tf_prefix_p2o.BatchNormalization.235/sub", "op": "Const", "attr": {"dtype": {"type": "DT_FLOAT"}, "value": {"tensor": {"dtype": "DT_FLOAT", "tensorShape": {"dim": [{"size": "1"}, {"size": "40"}, {"size": "1"}, {"size": "1"}]}}}}}, {"name": "PartitionedCall/strided_slice_92/stack", "op": "Const", "attr": {"dtype": {"type": "DT_INT32"}, "value": {"tensor": {"dtype": "DT_INT32", "tensorShape": {"dim": [{"size": "1"}]}}}}}, {"name": "PartitionedCall/strided_slice_92/stack_1", "op": "Const", "attr": {"dtype": {"type": "DT_INT32"}, "value": {"tensor": {"dtype": "DT_INT32", "tensorShape": {"dim": [{"size": "1"}]}}}}}, {"name": "PartitionedCall/strided_slice_92/stack_2", "op": "Const", "attr": {"dtype": {"type": "DT_INT32"}, "value": {"tensor": {"dtype": "DT_INT32", "tensorShape": {"dim": [{"size": "1"}]}}}}}, {"name": "PartitionedCall/transpose_751/perm", "op": "Const", "attr": {"dtype": {"type": "DT_INT32"}, "value": {"tensor": {"dtype": "DT_INT32", "tensorShape": {"dim": [{"size": "4"}]}}}}}, {"name": "PartitionedCall/transpose_755/perm", "op": "Const", "attr": {"value": {"tensor": {"dtype": "DT_INT32", "tensorShape": {"dim": [{"size": "4"}]}}}, "dtype": {"type": "DT_INT32"}}}, {"name": "PartitionedCall/strided_slice_93", "op": "Const", "attr": {"dtype": {"type": "DT_FLOAT"}, "value": {"tensor": {"dtype": "DT_FLOAT", "tensorShape": {"dim": [{"size": "2"}]}}}}}, {"name": "PartitionedCall/transpose_753/perm", "op": "Const", "attr": {"dtype": {"type": "DT_INT32"}, "value": {"tensor": {"dtype": "DT_INT32", "tensorShape": {"dim": [{"size": "4"}]}}}}}, {"name": "PartitionedCall/split_154", "op": "Const", "attr": {"dtype": {"type": "DT_FLOAT"}, "value": {"tensor": {"dtype": "DT_FLOAT", "tensorShape": {"dim": [{"size": "1"}, {"size": "1"}, {"size": "320"}, {"size": "40"}]}}}}}, {"name": "PartitionedCall/transpose_754/perm", "op": "Const", "attr": {"value": {"tensor": {"dtype": "DT_INT32", "tensorShape": {"dim": [{"size": "4"}]}}}, "dtype": {"type": "DT_INT32"}}}, {"name": "PartitionedCall/onnx_tf_prefix_p2o.BatchNormalization.236/mul", "op": "Const", "attr": {"dtype": {"type": "DT_FLOAT"}, "value": {"tensor": {"dtype": "DT_FLOAT", "tensorShape": {"dim": [{"size": "1"}, {"size": "40"}, {"size": "1"}, {"size": "1"}]}}}}}, {"name": "PartitionedCall/onnx_tf_prefix_p2o.BatchNormalization.236/sub", "op": "Const", "attr": {"value": {"tensor": {"dtype": "DT_FLOAT", "tensorShape": {"dim": [{"size": "1"}, {"size": "40"}, {"size": "1"}, {"size": "1"}]}}}, "dtype": {"type": "DT_FLOAT"}}}, {"name": "PartitionedCall/strided_slice_94/stack", "op": "Const", "attr": {"dtype": {"type": "DT_INT32"}, "value": {"tensor": {"dtype": "DT_INT32", "tensorShape": {"dim": [{"size": "1"}]}}}}}, {"name": "PartitionedCall/strided_slice_94/stack_1", "op": "Const", "attr": {"dtype": {"type": "DT_INT32"}, "value": {"tensor": {"dtype": "DT_INT32", "tensorShape": {"dim": [{"size": "1"}]}}}}}, {"name": "PartitionedCall/strided_slice_94/stack_2", "op": "Const", "attr": {"dtype": {"type": "DT_INT32"}, "value": {"tensor": {"dtype": "DT_INT32", "tensorShape": {"dim": [{"size": "1"}]}}}}}, {"name": "PartitionedCall/transpose_756/perm", "op": "Const", "attr": {"value": {"tensor": {"dtype": "DT_INT32", "tensorShape": {"dim": [{"size": "4"}]}}}, "dtype": {"type": "DT_INT32"}}}, {"name": "PartitionedCall/Const_1703", "op": "Const", "attr": {"value": {"tensor": {"dtype": "DT_INT32", "tensorShape": {"dim": [{"size": "4"}, {"size": "2"}]}}}, "dtype": {"type": "DT_INT32"}}}, {"name": "PartitionedCall/transpose_797/perm", "op": "Const", "attr": {"value": {"tensor": {"dtype": "DT_INT32", "tensorShape": {"dim": [{"size": "4"}]}}}, "dtype": {"type": "DT_INT32"}}}, {"name": "PartitionedCall/Reshape_1078", "op": "Const", "attr": {"value": {"tensor": {"dtype": "DT_FLOAT", "tensorShape": {"dim": [{"size": "3"}, {"size": "3"}, {"size": "40"}, {"size": "1"}]}}}, "dtype": {"type": "DT_FLOAT"}}}, {"name": "PartitionedCall/transpose_798/perm", "op": "Const", "attr": {"value": {"tensor": {"dtype": "DT_INT32", "tensorShape": {"dim": [{"size": "4"}]}}}, "dtype": {"type": "DT_INT32"}}}, {"name": "PartitionedCall/onnx_tf_prefix_p2o.BatchNormalization.248/mul", "op": "Const", "attr": {"dtype": {"type": "DT_FLOAT"}, "value": {"tensor": {"dtype": "DT_FLOAT", "tensorShape": {"dim": [{"size": "1"}, {"size": "40"}, {"size": "1"}, {"size": "1"}]}}}}}, {"name": "PartitionedCall/onnx_tf_prefix_p2o.BatchNormalization.248/sub", "op": "Const", "attr": {"value": {"tensor": {"dtype": "DT_FLOAT", "tensorShape": {"dim": [{"size": "1"}, {"size": "40"}, {"size": "1"}, {"size": "1"}]}}}, "dtype": {"type": "DT_FLOAT"}}}, {"name": "PartitionedCall/transpose_800/perm", "op": "Const", "attr": {"dtype": {"type": "DT_INT32"}, "value": {"tensor": {"dtype": "DT_INT32", "tensorShape": {"dim": [{"size": "4"}]}}}}}, {"name": "PartitionedCall/split_162", "op": "Const", "attr": {"value": {"tensor": {"dtype": "DT_FLOAT", "tensorShape": {"dim": [{"size": "1"}, {"size": "1"}, {"size": "40"}, {"size": "40"}]}}}, "dtype": {"type": "DT_FLOAT"}}}, {"name": "PartitionedCall/transpose_801/perm", "op": "Const", "attr": {"dtype": {"type": "DT_INT32"}, "value": {"tensor": {"dtype": "DT_INT32", "tensorShape": {"dim": [{"size": "4"}]}}}}}, {"name": "PartitionedCall/onnx_tf_prefix_p2o.BatchNormalization.249/mul", "op": "Const", "attr": {"value": {"tensor": {"dtype": "DT_FLOAT", "tensorShape": {"dim": [{"size": "1"}, {"size": "40"}, {"size": "1"}, {"size": "1"}]}}}, "dtype": {"type": "DT_FLOAT"}}}, {"name": "PartitionedCall/onnx_tf_prefix_p2o.BatchNormalization.249/sub", "op": "Const", "attr": {"value": {"tensor": {"dtype": "DT_FLOAT", "tensorShape": {"dim": [{"size": "1"}, {"size": "40"}, {"size": "1"}, {"size": "1"}]}}}, "dtype": {"type": "DT_FLOAT"}}}, {"name": "PartitionedCall/Const_1704", "op": "Const", "attr": {"dtype": {"type": "DT_INT32"}, "value": {"tensor": {"dtype": "DT_INT32", "tensorShape": {"dim": [{"size": "4"}, {"size": "2"}]}}}}}, {"name": "PartitionedCall/transpose_803/perm", "op": "Const", "attr": {"dtype": {"type": "DT_INT32"}, "value": {"tensor": {"dtype": "DT_INT32", "tensorShape": {"dim": [{"size": "4"}]}}}}}, {"name": "PartitionedCall/Reshape_1087", "op": "Const", "attr": {"value": {"tensor": {"dtype": "DT_FLOAT", "tensorShape": {"dim": [{"size": "3"}, {"size": "3"}, {"size": "40"}, {"size": "1"}]}}}, "dtype": {"type": "DT_FLOAT"}}}, {"name": "PartitionedCall/transpose_804/perm", "op": "Const", "attr": {"dtype": {"type": "DT_INT32"}, "value": {"tensor": {"dtype": "DT_INT32", "tensorShape": {"dim": [{"size": "4"}]}}}}}, {"name": "PartitionedCall/onnx_tf_prefix_p2o.BatchNormalization.250/mul", "op": "Const", "attr": {"value": {"tensor": {"dtype": "DT_FLOAT", "tensorShape": {"dim": [{"size": "1"}, {"size": "40"}, {"size": "1"}, {"size": "1"}]}}}, "dtype": {"type": "DT_FLOAT"}}}, {"name": "PartitionedCall/onnx_tf_prefix_p2o.BatchNormalization.250/sub", "op": "Const", "attr": {"dtype": {"type": "DT_FLOAT"}, "value": {"tensor": {"dtype": "DT_FLOAT", "tensorShape": {"dim": [{"size": "1"}, {"size": "40"}, {"size": "1"}, {"size": "1"}]}}}}}, {"name": "PartitionedCall/transpose_806/perm", "op": "Const", "attr": {"value": {"tensor": {"dtype": "DT_INT32", "tensorShape": {"dim": [{"size": "4"}]}}}, "dtype": {"type": "DT_INT32"}}}, {"name": "PartitionedCall/split_163", "op": "Const", "attr": {"value": {"tensor": {"dtype": "DT_FLOAT", "tensorShape": {"dim": [{"size": "1"}, {"size": "1"}, {"size": "40"}, {"size": "40"}]}}}, "dtype": {"type": "DT_FLOAT"}}}, {"name": "PartitionedCall/transpose_807/perm", "op": "Const", "attr": {"value": {"tensor": {"dtype": "DT_INT32", "tensorShape": {"dim": [{"size": "4"}]}}}, "dtype": {"type": "DT_INT32"}}}, {"name": "PartitionedCall/onnx_tf_prefix_p2o.BatchNormalization.251/mul", "op": "Const", "attr": {"value": {"tensor": {"dtype": "DT_FLOAT", "tensorShape": {"dim": [{"size": "1"}, {"size": "40"}, {"size": "1"}, {"size": "1"}]}}}, "dtype": {"type": "DT_FLOAT"}}}, {"name": "PartitionedCall/onnx_tf_prefix_p2o.BatchNormalization.251/sub", "op": "Const", "attr": {"dtype": {"type": "DT_FLOAT"}, "value": {"tensor": {"dtype": "DT_FLOAT", "tensorShape": {"dim": [{"size": "1"}, {"size": "40"}, {"size": "1"}, {"size": "1"}]}}}}}, {"name": "PartitionedCall/Const_1705", "op": "Const", "attr": {"dtype": {"type": "DT_INT32"}, "value": {"tensor": {"dtype": "DT_INT32", "tensorShape": {"dim": [{"size": "4"}, {"size": "2"}]}}}}}, {"name": "PartitionedCall/transpose_809/perm", "op": "Const", "attr": {"dtype": {"type": "DT_INT32"}, "value": {"tensor": {"dtype": "DT_INT32", "tensorShape": {"dim": [{"size": "4"}]}}}}}, {"name": "PartitionedCall/Reshape_1096", "op": "Const", "attr": {"dtype": {"type": "DT_FLOAT"}, "value": {"tensor": {"dtype": "DT_FLOAT", "tensorShape": {"dim": [{"size": "3"}, {"size": "3"}, {"size": "40"}, {"size": "1"}]}}}}}, {"name": "PartitionedCall/transpose_810/perm", "op": "Const", "attr": {"dtype": {"type": "DT_INT32"}, "value": {"tensor": {"dtype": "DT_INT32", "tensorShape": {"dim": [{"size": "4"}]}}}}}, {"name": "PartitionedCall/onnx_tf_prefix_p2o.BatchNormalization.252/mul", "op": "Const", "attr": {"value": {"tensor": {"dtype": "DT_FLOAT", "tensorShape": {"dim": [{"size": "1"}, {"size": "40"}, {"size": "1"}, {"size": "1"}]}}}, "dtype": {"type": "DT_FLOAT"}}}, {"name": "PartitionedCall/onnx_tf_prefix_p2o.BatchNormalization.252/sub", "op": "Const", "attr": {"dtype": {"type": "DT_FLOAT"}, "value": {"tensor": {"dtype": "DT_FLOAT", "tensorShape": {"dim": [{"size": "1"}, {"size": "40"}, {"size": "1"}, {"size": "1"}]}}}}}, {"name": "PartitionedCall/transpose_812/perm", "op": "Const", "attr": {"dtype": {"type": "DT_INT32"}, "value": {"tensor": {"dtype": "DT_INT32", "tensorShape": {"dim": [{"size": "4"}]}}}}}, {"name": "PartitionedCall/split_164", "op": "Const", "attr": {"dtype": {"type": "DT_FLOAT"}, "value": {"tensor": {"dtype": "DT_FLOAT", "tensorShape": {"dim": [{"size": "1"}, {"size": "1"}, {"size": "40"}, {"size": "320"}]}}}}}, {"name": "PartitionedCall/transpose_813/perm", "op": "Const", "attr": {"dtype": {"type": "DT_INT32"}, "value": {"tensor": {"dtype": "DT_INT32", "tensorShape": {"dim": [{"size": "4"}]}}}}}, {"name": "PartitionedCall/onnx_tf_prefix_p2o.BatchNormalization.253/mul", "op": "Const", "attr": {"dtype": {"type": "DT_FLOAT"}, "value": {"tensor": {"dtype": "DT_FLOAT", "tensorShape": {"dim": [{"size": "1"}, {"size": "320"}, {"size": "1"}, {"size": "1"}]}}}}}, {"name": "PartitionedCall/Const_1659", "op": "Const", "attr": {"value": {"tensor": {"dtype": "DT_INT64", "tensorShape": {"dim": [{"size": "4"}]}}}, "dtype": {"type": "DT_INT64"}}}, {"name": "PartitionedCall/Where_89", "op": "Const", "attr": {"dtype": {"type": "DT_INT64"}, "value": {"tensor": {"dtype": "DT_INT64", "tensorShape": {"dim": [{}, {"size": "1"}]}}}}}, {"name": "PartitionedCall/Cast_174", "op": "Const", "attr": {"value": {"tensor": {"dtype": "DT_INT64", "tensorShape": {"dim": [{"size": "1"}]}}}, "dtype": {"type": "DT_INT64"}}}, {"name": "PartitionedCall/Const_1657", "op": "Const", "attr": {"value": {"tensor": {"dtype": "DT_INT64", "tensorShape": {"dim": [{"size": "5"}]}}}, "dtype": {"type": "DT_INT64"}}}, {"name": "PartitionedCall/Where_88", "op": "Const", "attr": {"dtype": {"type": "DT_INT64"}, "value": {"tensor": {"dtype": "DT_INT64", "tensorShape": {"dim": [{}, {"size": "1"}]}}}}}, {"name": "PartitionedCall/Cast_173", "op": "Const", "attr": {"value": {"tensor": {"dtype": "DT_INT64", "tensorShape": {"dim": [{"size": "1"}]}}}, "dtype": {"type": "DT_INT64"}}}, {"name": "PartitionedCall/Const_1654", "op": "Const", "attr": {"dtype": {"type": "DT_INT64"}, "value": {"tensor": {"dtype": "DT_INT64", "tensorShape": {"dim": [{"size": "4"}]}}}}}, {"name": "PartitionedCall/Where_87", "op": "Const", "attr": {"dtype": {"type": "DT_INT64"}, "value": {"tensor": {"dtype": "DT_INT64", "tensorShape": {"dim": [{}, {"size": "1"}]}}}}}, {"name": "PartitionedCall/Cast_171", "op": "Const", "attr": {"value": {"tensor": {"dtype": "DT_INT64", "tensorShape": {"dim": [{"size": "1"}]}}}, "dtype": {"type": "DT_INT64"}}}, {"name": "PartitionedCall/Const_1652", "op": "Const", "attr": {"dtype": {"type": "DT_INT64"}, "value": {"tensor": {"dtype": "DT_INT64", "tensorShape": {"dim": [{"size": "5"}]}}}}}, {"name": "PartitionedCall/Where_86", "op": "Const", "attr": {"dtype": {"type": "DT_INT64"}, "value": {"tensor": {"dtype": "DT_INT64", "tensorShape": {"dim": [{}, {"size": "1"}]}}}}}, {"name": "PartitionedCall/Cast_170", "op": "Const", "attr": {"dtype": {"type": "DT_INT64"}, "value": {"tensor": {"dtype": "DT_INT64", "tensorShape": {"dim": [{"size": "1"}]}}}}}, {"name": "PartitionedCall/ArithmeticOptimizer/AddOpsRewrite_Leaf_0_onnx_tf_prefix_p2o.Add.96", "op": "Const", "attr": {"value": {"tensor": {"dtype": "DT_FLOAT", "tensorShape": {"dim": [{"size": "1"}, {"size": "80"}, {"size": "1"}, {"size": "1"}]}}}, "dtype": {"type": "DT_FLOAT"}}}, {"name": "PartitionedCall/Const_1622", "op": "Const", "attr": {"dtype": {"type": "DT_INT32"}, "value": {"tensor": {"dtype": "DT_INT32", "tensorShape": {"dim": [{"size": "4"}, {"size": "2"}]}}}}}, {"name": "PartitionedCall/transpose_596/perm", "op": "Const", "attr": {"dtype": {"type": "DT_INT32"}, "value": {"tensor": {"dtype": "DT_INT32", "tensorShape": {"dim": [{"size": "4"}]}}}}}, {"name": "PartitionedCall/Reshape_812", "op": "Const", "attr": {"dtype": {"type": "DT_FLOAT"}, "value": {"tensor": {"dtype": "DT_FLOAT", "tensorShape": {"dim": [{"size": "3"}, {"size": "3"}, {"size": "40"}, {"size": "1"}]}}}}}, {"name": "PartitionedCall/transpose_597/perm", "op": "Const", "attr": {"dtype": {"type": "DT_INT32"}, "value": {"tensor": {"dtype": "DT_INT32", "tensorShape": {"dim": [{"size": "4"}]}}}}}, {"name": "PartitionedCall/onnx_tf_prefix_p2o.BatchNormalization.187/mul", "op": "Const", "attr": {"value": {"tensor": {"dtype": "DT_FLOAT", "tensorShape": {"dim": [{"size": "1"}, {"size": "40"}, {"size": "1"}, {"size": "1"}]}}}, "dtype": {"type": "DT_FLOAT"}}}, {"name": "PartitionedCall/onnx_tf_prefix_p2o.BatchNormalization.187/sub", "op": "Const", "attr": {"dtype": {"type": "DT_FLOAT"}, "value": {"tensor": {"dtype": "DT_FLOAT", "tensorShape": {"dim": [{"size": "1"}, {"size": "40"}, {"size": "1"}, {"size": "1"}]}}}}}, {"name": "PartitionedCall/transpose_599/perm", "op": "Const", "attr": {"dtype": {"type": "DT_INT32"}, "value": {"tensor": {"dtype": "DT_INT32", "tensorShape": {"dim": [{"size": "4"}]}}}}}, {"name": "PartitionedCall/split_123", "op": "Const", "attr": {"dtype": {"type": "DT_FLOAT"}, "value": {"tensor": {"dtype": "DT_FLOAT", "tensorShape": {"dim": [{"size": "1"}, {"size": "1"}, {"size": "40"}, {"size": "80"}]}}}}}, {"name": "PartitionedCall/transpose_600/perm", "op": "Const", "attr": {"dtype": {"type": "DT_INT32"}, "value": {"tensor": {"dtype": "DT_INT32", "tensorShape": {"dim": [{"size": "4"}]}}}}}, {"name": "PartitionedCall/onnx_tf_prefix_p2o.BatchNormalization.188/mul", "op": "Const", "attr": {"dtype": {"type": "DT_FLOAT"}, "value": {"tensor": {"dtype": "DT_FLOAT", "tensorShape": {"dim": [{"size": "1"}, {"size": "80"}, {"size": "1"}, {"size": "1"}]}}}}}, {"name": "PartitionedCall/transpose_604/perm", "op": "Const", "attr": {"dtype": {"type": "DT_INT32"}, "value": {"tensor": {"dtype": "DT_INT32", "tensorShape": {"dim": [{"size": "4"}]}}}}}, {"name": "PartitionedCall/strided_slice_75", "op": "Const", "attr": {"value": {"tensor": {"dtype": "DT_FLOAT", "tensorShape": {"dim": [{"size": "2"}]}}}, "dtype": {"type": "DT_FLOAT"}}}, {"name": "PartitionedCall/transpose_602/perm", "op": "Const", "attr": {"dtype": {"type": "DT_INT32"}, "value": {"tensor": {"dtype": "DT_INT32", "tensorShape": {"dim": [{"size": "4"}]}}}}}, {"name": "PartitionedCall/split_124", "op": "Const", "attr": {"value": {"tensor": {"dtype": "DT_FLOAT", "tensorShape": {"dim": [{"size": "1"}, {"size": "1"}, {"size": "160"}, {"size": "80"}]}}}, "dtype": {"type": "DT_FLOAT"}}}, {"name": "PartitionedCall/transpose_603/perm", "op": "Const", "attr": {"dtype": {"type": "DT_INT32"}, "value": {"tensor": {"dtype": "DT_INT32", "tensorShape": {"dim": [{"size": "4"}]}}}}}, {"name": "PartitionedCall/onnx_tf_prefix_p2o.BatchNormalization.189/mul", "op": "Const", "attr": {"dtype": {"type": "DT_FLOAT"}, "value": {"tensor": {"dtype": "DT_FLOAT", "tensorShape": {"dim": [{"size": "1"}, {"size": "80"}, {"size": "1"}, {"size": "1"}]}}}}}, {"name": "PartitionedCall/onnx_tf_prefix_p2o.BatchNormalization.189/sub", "op": "Const", "attr": {"dtype": {"type": "DT_FLOAT"}, "value": {"tensor": {"dtype": "DT_FLOAT", "tensorShape": {"dim": [{"size": "1"}, {"size": "80"}, {"size": "1"}, {"size": "1"}]}}}}}, {"name": "PartitionedCall/strided_slice_76/stack", "op": "Const", "attr": {"value": {"tensor": {"dtype": "DT_INT32", "tensorShape": {"dim": [{"size": "1"}]}}}, "dtype": {"type": "DT_INT32"}}}, {"name": "PartitionedCall/strided_slice_76/stack_1", "op": "Const", "attr": {"dtype": {"type": "DT_INT32"}, "value": {"tensor": {"dtype": "DT_INT32", "tensorShape": {"dim": [{"size": "1"}]}}}}}, {"name": "PartitionedCall/strided_slice_76/stack_2", "op": "Const", "attr": {"dtype": {"type": "DT_INT32"}, "value": {"tensor": {"dtype": "DT_INT32", "tensorShape": {"dim": [{"size": "1"}]}}}}}, {"name": "PartitionedCall/transpose_605/perm", "op": "Const", "attr": {"dtype": {"type": "DT_INT32"}, "value": {"tensor": {"dtype": "DT_INT32", "tensorShape": {"dim": [{"size": "4"}]}}}}}, {"name": "PartitionedCall/transpose_609/perm", "op": "Const", "attr": {"dtype": {"type": "DT_INT32"}, "value": {"tensor": {"dtype": "DT_INT32", "tensorShape": {"dim": [{"size": "4"}]}}}}}, {"name": "PartitionedCall/strided_slice_77", "op": "Const", "attr": {"dtype": {"type": "DT_FLOAT"}, "value": {"tensor": {"dtype": "DT_FLOAT", "tensorShape": {"dim": [{"size": "2"}]}}}}}, {"name": "PartitionedCall/transpose_607/perm", "op": "Const", "attr": {"value": {"tensor": {"dtype": "DT_INT32", "tensorShape": {"dim": [{"size": "4"}]}}}, "dtype": {"type": "DT_INT32"}}}, {"name": "PartitionedCall/split_125", "op": "Const", "attr": {"dtype": {"type": "DT_FLOAT"}, "value": {"tensor": {"dtype": "DT_FLOAT", "tensorShape": {"dim": [{"size": "1"}, {"size": "1"}, {"size": "320"}, {"size": "80"}]}}}}}, {"name": "PartitionedCall/transpose_608/perm", "op": "Const", "attr": {"value": {"tensor": {"dtype": "DT_INT32", "tensorShape": {"dim": [{"size": "4"}]}}}, "dtype": {"type": "DT_INT32"}}}, {"name": "PartitionedCall/onnx_tf_prefix_p2o.BatchNormalization.190/mul", "op": "Const", "attr": {"value": {"tensor": {"dtype": "DT_FLOAT", "tensorShape": {"dim": [{"size": "1"}, {"size": "80"}, {"size": "1"}, {"size": "1"}]}}}, "dtype": {"type": "DT_FLOAT"}}}, {"name": "PartitionedCall/onnx_tf_prefix_p2o.BatchNormalization.190/sub", "op": "Const", "attr": {"value": {"tensor": {"dtype": "DT_FLOAT", "tensorShape": {"dim": [{"size": "1"}, {"size": "80"}, {"size": "1"}, {"size": "1"}]}}}, "dtype": {"type": "DT_FLOAT"}}}, {"name": "PartitionedCall/strided_slice_78/stack", "op": "Const", "attr": {"dtype": {"type": "DT_INT32"}, "value": {"tensor": {"dtype": "DT_INT32", "tensorShape": {"dim": [{"size": "1"}]}}}}}, {"name": "PartitionedCall/strided_slice_78/stack_1", "op": "Const", "attr": {"dtype": {"type": "DT_INT32"}, "value": {"tensor": {"dtype": "DT_INT32", "tensorShape": {"dim": [{"size": "1"}]}}}}}, {"name": "PartitionedCall/strided_slice_78/stack_2", "op": "Const", "attr": {"dtype": {"type": "DT_INT32"}, "value": {"tensor": {"dtype": "DT_INT32", "tensorShape": {"dim": [{"size": "1"}]}}}}}, {"name": "PartitionedCall/transpose_610/perm", "op": "Const", "attr": {"dtype": {"type": "DT_INT32"}, "value": {"tensor": {"dtype": "DT_INT32", "tensorShape": {"dim": [{"size": "4"}]}}}}}, {"name": "PartitionedCall/strided_slice_83/stack", "op": "Const", "attr": {"dtype": {"type": "DT_INT32"}, "value": {"tensor": {"dtype": "DT_INT32", "tensorShape": {"dim": [{"size": "1"}]}}}}}, {"name": "PartitionedCall/strided_slice_83/stack_1", "op": "Const", "attr": {"value": {"tensor": {"dtype": "DT_INT32", "tensorShape": {"dim": [{"size": "1"}]}}}, "dtype": {"type": "DT_INT32"}}}, {"name": "PartitionedCall/strided_slice_83/stack_2", "op": "Const", "attr": {"dtype": {"type": "DT_INT32"}, "value": {"tensor": {"dtype": "DT_INT32", "tensorShape": {"dim": [{"size": "1"}]}}}}}, {"name": "ConstantFolding/PartitionedCall/truediv_43_recip", "op": "Const", "attr": {"dtype": {"type": "DT_DOUBLE"}, "value": {"tensor": {"dtype": "DT_DOUBLE", "tensorShape": {}}}}}, {"name": "PartitionedCall/onnx_tf_prefix_p2o.Split.43/split_dim", "op": "Const", "attr": {"dtype": {"type": "DT_INT32"}, "value": {"tensor": {"dtype": "DT_INT32", "tensorShape": {}}}}}, {"name": "PartitionedCall/transpose_689/perm", "op": "Const", "attr": {"dtype": {"type": "DT_INT32"}, "value": {"tensor": {"dtype": "DT_INT32", "tensorShape": {"dim": [{"size": "4"}]}}}}}, {"name": "PartitionedCall/split_140", "op": "Const", "attr": {"dtype": {"type": "DT_FLOAT"}, "value": {"tensor": {"dtype": "DT_FLOAT", "tensorShape": {"dim": [{"size": "1"}, {"size": "1"}, {"size": "40"}, {"size": "40"}]}}}}}, {"name": "PartitionedCall/transpose_690/perm", "op": "Const", "attr": {"dtype": {"type": "DT_INT32"}, "value": {"tensor": {"dtype": "DT_INT32", "tensorShape": {"dim": [{"size": "4"}]}}}}}, {"name": "PartitionedCall/onnx_tf_prefix_p2o.BatchNormalization.216/mul", "op": "Const", "attr": {"dtype": {"type": "DT_FLOAT"}, "value": {"tensor": {"dtype": "DT_FLOAT", "tensorShape": {"dim": [{"size": "1"}, {"size": "40"}, {"size": "1"}, {"size": "1"}]}}}}}, {"name": "PartitionedCall/onnx_tf_prefix_p2o.BatchNormalization.216/sub", "op": "Const", "attr": {"dtype": {"type": "DT_FLOAT"}, "value": {"tensor": {"dtype": "DT_FLOAT", "tensorShape": {"dim": [{"size": "1"}, {"size": "40"}, {"size": "1"}, {"size": "1"}]}}}}}, {"name": "PartitionedCall/Const_1651", "op": "Const", "attr": {"dtype": {"type": "DT_INT32"}, "value": {"tensor": {"dtype": "DT_INT32", "tensorShape": {"dim": [{"size": "4"}, {"size": "2"}]}}}}}, {"name": "PartitionedCall/transpose_692/perm", "op": "Const", "attr": {"dtype": {"type": "DT_INT32"}, "value": {"tensor": {"dtype": "DT_INT32", "tensorShape": {"dim": [{"size": "4"}]}}}}}, {"name": "PartitionedCall/Reshape_944", "op": "Const", "attr": {"value": {"tensor": {"dtype": "DT_FLOAT", "tensorShape": {"dim": [{"size": "3"}, {"size": "3"}, {"size": "40"}, {"size": "1"}]}}}, "dtype": {"type": "DT_FLOAT"}}}, {"name": "PartitionedCall/transpose_693/perm", "op": "Const", "attr": {"value": {"tensor": {"dtype": "DT_INT32", "tensorShape": {"dim": [{"size": "4"}]}}}, "dtype": {"type": "DT_INT32"}}}, {"name": "PartitionedCall/onnx_tf_prefix_p2o.BatchNormalization.217/mul", "op": "Const", "attr": {"dtype": {"type": "DT_FLOAT"}, "value": {"tensor": {"dtype": "DT_FLOAT", "tensorShape": {"dim": [{"size": "1"}, {"size": "40"}, {"size": "1"}, {"size": "1"}]}}}}}, {"name": "PartitionedCall/onnx_tf_prefix_p2o.BatchNormalization.217/sub", "op": "Const", "attr": {"dtype": {"type": "DT_FLOAT"}, "value": {"tensor": {"dtype": "DT_FLOAT", "tensorShape": {"dim": [{"size": "1"}, {"size": "40"}, {"size": "1"}, {"size": "1"}]}}}}}, {"name": "PartitionedCall/transpose_695/perm", "op": "Const", "attr": {"value": {"tensor": {"dtype": "DT_INT32", "tensorShape": {"dim": [{"size": "4"}]}}}, "dtype": {"type": "DT_INT32"}}}, {"name": "PartitionedCall/split_141", "op": "Const", "attr": {"dtype": {"type": "DT_FLOAT"}, "value": {"tensor": {"dtype": "DT_FLOAT", "tensorShape": {"dim": [{"size": "1"}, {"size": "1"}, {"size": "40"}, {"size": "40"}]}}}}}, {"name": "PartitionedCall/transpose_696/perm", "op": "Const", "attr": {"dtype": {"type": "DT_INT32"}, "value": {"tensor": {"dtype": "DT_INT32", "tensorShape": {"dim": [{"size": "4"}]}}}}}, {"name": "PartitionedCall/onnx_tf_prefix_p2o.BatchNormalization.218/mul", "op": "Const", "attr": {"value": {"tensor": {"dtype": "DT_FLOAT", "tensorShape": {"dim": [{"size": "1"}, {"size": "40"}, {"size": "1"}, {"size": "1"}]}}}, "dtype": {"type": "DT_FLOAT"}}}, {"name": "PartitionedCall/onnx_tf_prefix_p2o.BatchNormalization.218/sub", "op": "Const", "attr": {"dtype": {"type": "DT_FLOAT"}, "value": {"tensor": {"dtype": "DT_FLOAT", "tensorShape": {"dim": [{"size": "1"}, {"size": "40"}, {"size": "1"}, {"size": "1"}]}}}}}, {"name": "PartitionedCall/onnx_tf_prefix_p2o.Concat.86/axis", "op": "Const", "attr": {"dtype": {"type": "DT_INT32"}, "value": {"tensor": {"dtype": "DT_INT32", "tensorShape": {}}}}}, {"name": "PartitionedCall/Squeeze_86", "op": "Const", "attr": {"value": {"tensor": {"dtype": "DT_INT64", "tensorShape": {"dim": [{}]}}}, "dtype": {"type": "DT_INT64"}}}, {"name": "PartitionedCall/GatherV2_86/axis", "op": "Const", "attr": {"value": {"tensor": {"dtype": "DT_INT32", "tensorShape": {}}}, "dtype": {"type": "DT_INT32"}}}, {"name": "PartitionedCall/zeros_86", "op": "Const", "attr": {"value": {"tensor": {"dtype": "DT_INT64", "tensorShape": {}}}, "dtype": {"type": "DT_INT64"}}}, {"name": "PartitionedCall/onnx_tf_prefix_p2o.Transpose.43/perm", "op": "Const", "attr": {"dtype": {"type": "DT_INT32"}, "value": {"tensor": {"dtype": "DT_INT32", "tensorShape": {"dim": [{"size": "5"}]}}}}}, {"name": "PartitionedCall/Squeeze_87", "op": "Const", "attr": {"value": {"tensor": {"dtype": "DT_INT64", "tensorShape": {"dim": [{}]}}}, "dtype": {"type": "DT_INT64"}}}, {"name": "PartitionedCall/GatherV2_87/axis", "op": "Const", "attr": {"dtype": {"type": "DT_INT32"}, "value": {"tensor": {"dtype": "DT_INT32", "tensorShape": {}}}}}, {"name": "PartitionedCall/zeros_87", "op": "Const", "attr": {"dtype": {"type": "DT_INT64"}, "value": {"tensor": {"dtype": "DT_INT64", "tensorShape": {}}}}}, {"name": "PartitionedCall/strided_slice_84/stack", "op": "Const", "attr": {"value": {"tensor": {"dtype": "DT_INT32", "tensorShape": {"dim": [{"size": "1"}]}}}, "dtype": {"type": "DT_INT32"}}}, {"name": "PartitionedCall/strided_slice_84/stack_1", "op": "Const", "attr": {"dtype": {"type": "DT_INT32"}, "value": {"tensor": {"dtype": "DT_INT32", "tensorShape": {"dim": [{"size": "1"}]}}}}}, {"name": "PartitionedCall/strided_slice_84/stack_2", "op": "Const", "attr": {"dtype": {"type": "DT_INT32"}, "value": {"tensor": {"dtype": "DT_INT32", "tensorShape": {"dim": [{"size": "1"}]}}}}}, {"name": "ConstantFolding/PartitionedCall/truediv_44_recip", "op": "Const", "attr": {"value": {"tensor": {"dtype": "DT_DOUBLE", "tensorShape": {}}}, "dtype": {"type": "DT_DOUBLE"}}}, {"name": "PartitionedCall/onnx_tf_prefix_p2o.Split.44/split_dim", "op": "Const", "attr": {"dtype": {"type": "DT_INT32"}, "value": {"tensor": {"dtype": "DT_INT32", "tensorShape": {}}}}}, {"name": "PartitionedCall/transpose_698/perm", "op": "Const", "attr": {"dtype": {"type": "DT_INT32"}, "value": {"tensor": {"dtype": "DT_INT32", "tensorShape": {"dim": [{"size": "4"}]}}}}}, {"name": "PartitionedCall/split_142", "op": "Const", "attr": {"value": {"tensor": {"dtype": "DT_FLOAT", "tensorShape": {"dim": [{"size": "1"}, {"size": "1"}, {"size": "40"}, {"size": "40"}]}}}, "dtype": {"type": "DT_FLOAT"}}}, {"name": "PartitionedCall/transpose_699/perm", "op": "Const", "attr": {"dtype": {"type": "DT_INT32"}, "value": {"tensor": {"dtype": "DT_INT32", "tensorShape": {"dim": [{"size": "4"}]}}}}}, {"name": "PartitionedCall/onnx_tf_prefix_p2o.BatchNormalization.219/mul", "op": "Const", "attr": {"value": {"tensor": {"dtype": "DT_FLOAT", "tensorShape": {"dim": [{"size": "1"}, {"size": "40"}, {"size": "1"}, {"size": "1"}]}}}, "dtype": {"type": "DT_FLOAT"}}}, {"name": "PartitionedCall/onnx_tf_prefix_p2o.BatchNormalization.219/sub", "op": "Const", "attr": {"dtype": {"type": "DT_FLOAT"}, "value": {"tensor": {"dtype": "DT_FLOAT", "tensorShape": {"dim": [{"size": "1"}, {"size": "40"}, {"size": "1"}, {"size": "1"}]}}}}}, {"name": "PartitionedCall/Const_1656", "op": "Const", "attr": {"dtype": {"type": "DT_INT32"}, "value": {"tensor": {"dtype": "DT_INT32", "tensorShape": {"dim": [{"size": "4"}, {"size": "2"}]}}}}}, {"name": "PartitionedCall/transpose_701/perm", "op": "Const", "attr": {"value": {"tensor": {"dtype": "DT_INT32", "tensorShape": {"dim": [{"size": "4"}]}}}, "dtype": {"type": "DT_INT32"}}}, {"name": "PartitionedCall/Reshape_957", "op": "Const", "attr": {"value": {"tensor": {"dtype": "DT_FLOAT", "tensorShape": {"dim": [{"size": "3"}, {"size": "3"}, {"size": "40"}, {"size": "1"}]}}}, "dtype": {"type": "DT_FLOAT"}}}, {"name": "PartitionedCall/transpose_702/perm", "op": "Const", "attr": {"dtype": {"type": "DT_INT32"}, "value": {"tensor": {"dtype": "DT_INT32", "tensorShape": {"dim": [{"size": "4"}]}}}}}, {"name": "PartitionedCall/onnx_tf_prefix_p2o.BatchNormalization.220/mul", "op": "Const", "attr": {"dtype": {"type": "DT_FLOAT"}, "value": {"tensor": {"dtype": "DT_FLOAT", "tensorShape": {"dim": [{"size": "1"}, {"size": "40"}, {"size": "1"}, {"size": "1"}]}}}}}, {"name": "PartitionedCall/onnx_tf_prefix_p2o.BatchNormalization.220/sub", "op": "Const", "attr": {"dtype": {"type": "DT_FLOAT"}, "value": {"tensor": {"dtype": "DT_FLOAT", "tensorShape": {"dim": [{"size": "1"}, {"size": "40"}, {"size": "1"}, {"size": "1"}]}}}}}, {"name": "PartitionedCall/transpose_704/perm", "op": "Const", "attr": {"dtype": {"type": "DT_INT32"}, "value": {"tensor": {"dtype": "DT_INT32", "tensorShape": {"dim": [{"size": "4"}]}}}}}, {"name": "PartitionedCall/split_143", "op": "Const", "attr": {"value": {"tensor": {"dtype": "DT_FLOAT", "tensorShape": {"dim": [{"size": "1"}, {"size": "1"}, {"size": "40"}, {"size": "40"}]}}}, "dtype": {"type": "DT_FLOAT"}}}, {"name": "PartitionedCall/transpose_705/perm", "op": "Const", "attr": {"value": {"tensor": {"dtype": "DT_INT32", "tensorShape": {"dim": [{"size": "4"}]}}}, "dtype": {"type": "DT_INT32"}}}, {"name": "PartitionedCall/onnx_tf_prefix_p2o.BatchNormalization.221/mul", "op": "Const", "attr": {"dtype": {"type": "DT_FLOAT"}, "value": {"tensor": {"dtype": "DT_FLOAT", "tensorShape": {"dim": [{"size": "1"}, {"size": "40"}, {"size": "1"}, {"size": "1"}]}}}}}, {"name": "PartitionedCall/onnx_tf_prefix_p2o.BatchNormalization.221/sub", "op": "Const", "attr": {"dtype": {"type": "DT_FLOAT"}, "value": {"tensor": {"dtype": "DT_FLOAT", "tensorShape": {"dim": [{"size": "1"}, {"size": "40"}, {"size": "1"}, {"size": "1"}]}}}}}, {"name": "PartitionedCall/onnx_tf_prefix_p2o.Concat.88/axis", "op": "Const", "attr": {"value": {"tensor": {"dtype": "DT_INT32", "tensorShape": {}}}, "dtype": {"type": "DT_INT32"}}}, {"name": "PartitionedCall/Squeeze_88", "op": "Const", "attr": {"dtype": {"type": "DT_INT64"}, "value": {"tensor": {"dtype": "DT_INT64", "tensorShape": {"dim": [{}]}}}}}, {"name": "PartitionedCall/GatherV2_88/axis", "op": "Const", "attr": {"dtype": {"type": "DT_INT32"}, "value": {"tensor": {"dtype": "DT_INT32", "tensorShape": {}}}}}, {"name": "PartitionedCall/zeros_88", "op": "Const", "attr": {"value": {"tensor": {"dtype": "DT_INT64", "tensorShape": {}}}, "dtype": {"type": "DT_INT64"}}}, {"name": "PartitionedCall/onnx_tf_prefix_p2o.Transpose.44/perm", "op": "Const", "attr": {"dtype": {"type": "DT_INT32"}, "value": {"tensor": {"dtype": "DT_INT32", "tensorShape": {"dim": [{"size": "5"}]}}}}}, {"name": "PartitionedCall/Squeeze_89", "op": "Const", "attr": {"dtype": {"type": "DT_INT64"}, "value": {"tensor": {"dtype": "DT_INT64", "tensorShape": {"dim": [{}]}}}}}, {"name": "PartitionedCall/GatherV2_89/axis", "op": "Const", "attr": {"dtype": {"type": "DT_INT32"}, "value": {"tensor": {"dtype": "DT_INT32", "tensorShape": {}}}}}, {"name": "PartitionedCall/zeros_89", "op": "Const", "attr": {"dtype": {"type": "DT_INT64"}, "value": {"tensor": {"dtype": "DT_INT64", "tensorShape": {}}}}}, {"name": "PartitionedCall/Const_1706", "op": "Const", "attr": {"value": {"tensor": {"dtype": "DT_INT32", "tensorShape": {"dim": [{"size": "4"}, {"size": "2"}]}}}, "dtype": {"type": "DT_INT32"}}}, {"name": "PartitionedCall/transpose_815/perm", "op": "Const", "attr": {"dtype": {"type": "DT_INT32"}, "value": {"tensor": {"dtype": "DT_INT32", "tensorShape": {"dim": [{"size": "4"}]}}}}}, {"name": "PartitionedCall/Reshape_1105", "op": "Const", "attr": {"value": {"tensor": {"dtype": "DT_FLOAT", "tensorShape": {"dim": [{"size": "3"}, {"size": "3"}, {"size": "80"}, {"size": "1"}]}}}, "dtype": {"type": "DT_FLOAT"}}}, {"name": "PartitionedCall/transpose_816/perm", "op": "Const", "attr": {"dtype": {"type": "DT_INT32"}, "value": {"tensor": {"dtype": "DT_INT32", "tensorShape": {"dim": [{"size": "4"}]}}}}}, {"name": "PartitionedCall/onnx_tf_prefix_p2o.BatchNormalization.254/mul", "op": "Const", "attr": {"value": {"tensor": {"dtype": "DT_FLOAT", "tensorShape": {"dim": [{"size": "1"}, {"size": "80"}, {"size": "1"}, {"size": "1"}]}}}, "dtype": {"type": "DT_FLOAT"}}}, {"name": "PartitionedCall/onnx_tf_prefix_p2o.BatchNormalization.254/sub", "op": "Const", "attr": {"dtype": {"type": "DT_FLOAT"}, "value": {"tensor": {"dtype": "DT_FLOAT", "tensorShape": {"dim": [{"size": "1"}, {"size": "80"}, {"size": "1"}, {"size": "1"}]}}}}}, {"name": "PartitionedCall/transpose_818/perm", "op": "Const", "attr": {"dtype": {"type": "DT_INT32"}, "value": {"tensor": {"dtype": "DT_INT32", "tensorShape": {"dim": [{"size": "4"}]}}}}}, {"name": "PartitionedCall/split_165", "op": "Const", "attr": {"dtype": {"type": "DT_FLOAT"}, "value": {"tensor": {"dtype": "DT_FLOAT", "tensorShape": {"dim": [{"size": "1"}, {"size": "1"}, {"size": "80"}, {"size": "80"}]}}}}}, {"name": "PartitionedCall/transpose_819/perm", "op": "Const", "attr": {"dtype": {"type": "DT_INT32"}, "value": {"tensor": {"dtype": "DT_INT32", "tensorShape": {"dim": [{"size": "4"}]}}}}}, {"name": "PartitionedCall/onnx_tf_prefix_p2o.BatchNormalization.255/mul", "op": "Const", "attr": {"value": {"tensor": {"dtype": "DT_FLOAT", "tensorShape": {"dim": [{"size": "1"}, {"size": "80"}, {"size": "1"}, {"size": "1"}]}}}, "dtype": {"type": "DT_FLOAT"}}}, {"name": "PartitionedCall/onnx_tf_prefix_p2o.BatchNormalization.255/sub", "op": "Const", "attr": {"dtype": {"type": "DT_FLOAT"}, "value": {"tensor": {"dtype": "DT_FLOAT", "tensorShape": {"dim": [{"size": "1"}, {"size": "80"}, {"size": "1"}, {"size": "1"}]}}}}}, {"name": "PartitionedCall/Const_1707", "op": "Const", "attr": {"value": {"tensor": {"dtype": "DT_INT32", "tensorShape": {"dim": [{"size": "4"}, {"size": "2"}]}}}, "dtype": {"type": "DT_INT32"}}}, {"name": "PartitionedCall/transpose_821/perm", "op": "Const", "attr": {"value": {"tensor": {"dtype": "DT_INT32", "tensorShape": {"dim": [{"size": "4"}]}}}, "dtype": {"type": "DT_INT32"}}}, {"name": "PartitionedCall/Reshape_1114", "op": "Const", "attr": {"value": {"tensor": {"dtype": "DT_FLOAT", "tensorShape": {"dim": [{"size": "3"}, {"size": "3"}, {"size": "80"}, {"size": "1"}]}}}, "dtype": {"type": "DT_FLOAT"}}}, {"name": "PartitionedCall/transpose_822/perm", "op": "Const", "attr": {"value": {"tensor": {"dtype": "DT_INT32", "tensorShape": {"dim": [{"size": "4"}]}}}, "dtype": {"type": "DT_INT32"}}}, {"name": "PartitionedCall/onnx_tf_prefix_p2o.BatchNormalization.256/mul", "op": "Const", "attr": {"dtype": {"type": "DT_FLOAT"}, "value": {"tensor": {"dtype": "DT_FLOAT", "tensorShape": {"dim": [{"size": "1"}, {"size": "80"}, {"size": "1"}, {"size": "1"}]}}}}}, {"name": "PartitionedCall/onnx_tf_prefix_p2o.BatchNormalization.256/sub", "op": "Const", "attr": {"value": {"tensor": {"dtype": "DT_FLOAT", "tensorShape": {"dim": [{"size": "1"}, {"size": "80"}, {"size": "1"}, {"size": "1"}]}}}, "dtype": {"type": "DT_FLOAT"}}}, {"name": "PartitionedCall/transpose_824/perm", "op": "Const", "attr": {"value": {"tensor": {"dtype": "DT_INT32", "tensorShape": {"dim": [{"size": "4"}]}}}, "dtype": {"type": "DT_INT32"}}}, {"name": "PartitionedCall/split_166", "op": "Const", "attr": {"value": {"tensor": {"dtype": "DT_FLOAT", "tensorShape": {"dim": [{"size": "1"}, {"size": "1"}, {"size": "80"}, {"size": "320"}]}}}, "dtype": {"type": "DT_FLOAT"}}}, {"name": "PartitionedCall/transpose_825/perm", "op": "Const", "attr": {"value": {"tensor": {"dtype": "DT_INT32", "tensorShape": {"dim": [{"size": "4"}]}}}, "dtype": {"type": "DT_INT32"}}}, {"name": "PartitionedCall/onnx_tf_prefix_p2o.BatchNormalization.257/mul", "op": "Const", "attr": {"value": {"tensor": {"dtype": "DT_FLOAT", "tensorShape": {"dim": [{"size": "1"}, {"size": "320"}, {"size": "1"}, {"size": "1"}]}}}, "dtype": {"type": "DT_FLOAT"}}}, {"name": "PartitionedCall/onnx_tf_prefix_p2o.BatchNormalization.257/sub", "op": "Const", "attr": {"value": {"tensor": {"dtype": "DT_FLOAT", "tensorShape": {"dim": [{"size": "1"}, {"size": "320"}, {"size": "1"}, {"size": "1"}]}}}, "dtype": {"type": "DT_FLOAT"}}}, {"name": "PartitionedCall/Const_1669", "op": "Const", "attr": {"dtype": {"type": "DT_INT64"}, "value": {"tensor": {"dtype": "DT_INT64", "tensorShape": {"dim": [{"size": "4"}]}}}}}, {"name": "PartitionedCall/Where_93", "op": "Const", "attr": {"value": {"tensor": {"dtype": "DT_INT64", "tensorShape": {"dim": [{}, {"size": "1"}]}}}, "dtype": {"type": "DT_INT64"}}}, {"name": "PartitionedCall/Cast_180", "op": "Const", "attr": {"value": {"tensor": {"dtype": "DT_INT64", "tensorShape": {"dim": [{"size": "1"}]}}}, "dtype": {"type": "DT_INT64"}}}, {"name": "PartitionedCall/Const_1667", "op": "Const", "attr": {"dtype": {"type": "DT_INT64"}, "value": {"tensor": {"dtype": "DT_INT64", "tensorShape": {"dim": [{"size": "5"}]}}}}}, {"name": "PartitionedCall/Where_92", "op": "Const", "attr": {"dtype": {"type": "DT_INT64"}, "value": {"tensor": {"dtype": "DT_INT64", "tensorShape": {"dim": [{}, {"size": "1"}]}}}}}, {"name": "PartitionedCall/Cast_179", "op": "Const", "attr": {"value": {"tensor": {"dtype": "DT_INT64", "tensorShape": {"dim": [{"size": "1"}]}}}, "dtype": {"type": "DT_INT64"}}}, {"name": "PartitionedCall/Const_1664", "op": "Const", "attr": {"value": {"tensor": {"dtype": "DT_INT64", "tensorShape": {"dim": [{"size": "4"}]}}}, "dtype": {"type": "DT_INT64"}}}, {"name": "PartitionedCall/Where_91", "op": "Const", "attr": {"dtype": {"type": "DT_INT64"}, "value": {"tensor": {"dtype": "DT_INT64", "tensorShape": {"dim": [{}, {"size": "1"}]}}}}}, {"name": "PartitionedCall/Cast_177", "op": "Const", "attr": {"value": {"tensor": {"dtype": "DT_INT64", "tensorShape": {"dim": [{"size": "1"}]}}}, "dtype": {"type": "DT_INT64"}}}, {"name": "PartitionedCall/Const_1662", "op": "Const", "attr": {"value": {"tensor": {"dtype": "DT_INT64", "tensorShape": {"dim": [{"size": "5"}]}}}, "dtype": {"type": "DT_INT64"}}}, {"name": "PartitionedCall/Where_90", "op": "Const", "attr": {"dtype": {"type": "DT_INT64"}, "value": {"tensor": {"dtype": "DT_INT64", "tensorShape": {"dim": [{}, {"size": "1"}]}}}}}, {"name": "PartitionedCall/Cast_176", "op": "Const", "attr": {"value": {"tensor": {"dtype": "DT_INT64", "tensorShape": {"dim": [{"size": "1"}]}}}, "dtype": {"type": "DT_INT64"}}}, {"name": "PartitionedCall/ArithmeticOptimizer/AddOpsRewrite_Leaf_0_onnx_tf_prefix_p2o.Add.104", "op": "Const", "attr": {"value": {"tensor": {"dtype": "DT_FLOAT", "tensorShape": {"dim": [{"size": "1"}, {"size": "160"}, {"size": "1"}, {"size": "1"}]}}}, "dtype": {"type": "DT_FLOAT"}}}, {"name": "PartitionedCall/Const_1629", "op": "Const", "attr": {"value": {"tensor": {"dtype": "DT_INT32", "tensorShape": {"dim": [{"size": "4"}, {"size": "2"}]}}}, "dtype": {"type": "DT_INT32"}}}, {"name": "PartitionedCall/transpose_612/perm", "op": "Const", "attr": {"dtype": {"type": "DT_INT32"}, "value": {"tensor": {"dtype": "DT_INT32", "tensorShape": {"dim": [{"size": "4"}]}}}}}, {"name": "PartitionedCall/Reshape_829", "op": "Const", "attr": {"value": {"tensor": {"dtype": "DT_FLOAT", "tensorShape": {"dim": [{"size": "3"}, {"size": "3"}, {"size": "40"}, {"size": "1"}]}}}, "dtype": {"type": "DT_FLOAT"}}}, {"name": "PartitionedCall/transpose_613/perm", "op": "Const", "attr": {"value": {"tensor": {"dtype": "DT_INT32", "tensorShape": {"dim": [{"size": "4"}]}}}, "dtype": {"type": "DT_INT32"}}}, {"name": "PartitionedCall/onnx_tf_prefix_p2o.BatchNormalization.191/mul", "op": "Const", "attr": {"value": {"tensor": {"dtype": "DT_FLOAT", "tensorShape": {"dim": [{"size": "1"}, {"size": "40"}, {"size": "1"}, {"size": "1"}]}}}, "dtype": {"type": "DT_FLOAT"}}}, {"name": "PartitionedCall/onnx_tf_prefix_p2o.BatchNormalization.191/sub", "op": "Const", "attr": {"dtype": {"type": "DT_FLOAT"}, "value": {"tensor": {"dtype": "DT_FLOAT", "tensorShape": {"dim": [{"size": "1"}, {"size": "40"}, {"size": "1"}, {"size": "1"}]}}}}}, {"name": "PartitionedCall/transpose_615/perm", "op": "Const", "attr": {"dtype": {"type": "DT_INT32"}, "value": {"tensor": {"dtype": "DT_INT32", "tensorShape": {"dim": [{"size": "4"}]}}}}}, {"name": "PartitionedCall/split_126", "op": "Const", "attr": {"dtype": {"type": "DT_FLOAT"}, "value": {"tensor": {"dtype": "DT_FLOAT", "tensorShape": {"dim": [{"size": "1"}, {"size": "1"}, {"size": "40"}, {"size": "40"}]}}}}}, {"name": "PartitionedCall/transpose_616/perm", "op": "Const", "attr": {"value": {"tensor": {"dtype": "DT_INT32", "tensorShape": {"dim": [{"size": "4"}]}}}, "dtype": {"type": "DT_INT32"}}}, {"name": "PartitionedCall/onnx_tf_prefix_p2o.BatchNormalization.192/mul", "op": "Const", "attr": {"value": {"tensor": {"dtype": "DT_FLOAT", "tensorShape": {"dim": [{"size": "1"}, {"size": "40"}, {"size": "1"}, {"size": "1"}]}}}, "dtype": {"type": "DT_FLOAT"}}}, {"name": "PartitionedCall/onnx_tf_prefix_p2o.BatchNormalization.192/sub", "op": "Const", "attr": {"dtype": {"type": "DT_FLOAT"}, "value": {"tensor": {"dtype": "DT_FLOAT", "tensorShape": {"dim": [{"size": "1"}, {"size": "40"}, {"size": "1"}, {"size": "1"}]}}}}}, {"name": "PartitionedCall/Const_1630", "op": "Const", "attr": {"value": {"tensor": {"dtype": "DT_INT32", "tensorShape": {"dim": [{"size": "4"}, {"size": "2"}]}}}, "dtype": {"type": "DT_INT32"}}}, {"name": "PartitionedCall/transpose_618/perm", "op": "Const", "attr": {"dtype": {"type": "DT_INT32"}, "value": {"tensor": {"dtype": "DT_INT32", "tensorShape": {"dim": [{"size": "4"}]}}}}}, {"name": "PartitionedCall/Reshape_838", "op": "Const", "attr": {"value": {"tensor": {"dtype": "DT_FLOAT", "tensorShape": {"dim": [{"size": "3"}, {"size": "3"}, {"size": "40"}, {"size": "1"}]}}}, "dtype": {"type": "DT_FLOAT"}}}, {"name": "PartitionedCall/transpose_619/perm", "op": "Const", "attr": {"value": {"tensor": {"dtype": "DT_INT32", "tensorShape": {"dim": [{"size": "4"}]}}}, "dtype": {"type": "DT_INT32"}}}, {"name": "PartitionedCall/onnx_tf_prefix_p2o.BatchNormalization.193/mul", "op": "Const", "attr": {"dtype": {"type": "DT_FLOAT"}, "value": {"tensor": {"dtype": "DT_FLOAT", "tensorShape": {"dim": [{"size": "1"}, {"size": "40"}, {"size": "1"}, {"size": "1"}]}}}}}, {"name": "PartitionedCall/onnx_tf_prefix_p2o.BatchNormalization.193/sub", "op": "Const", "attr": {"dtype": {"type": "DT_FLOAT"}, "value": {"tensor": {"dtype": "DT_FLOAT", "tensorShape": {"dim": [{"size": "1"}, {"size": "40"}, {"size": "1"}, {"size": "1"}]}}}}}, {"name": "PartitionedCall/transpose_621/perm", "op": "Const", "attr": {"value": {"tensor": {"dtype": "DT_INT32", "tensorShape": {"dim": [{"size": "4"}]}}}, "dtype": {"type": "DT_INT32"}}}, {"name": "PartitionedCall/split_127", "op": "Const", "attr": {"value": {"tensor": {"dtype": "DT_FLOAT", "tensorShape": {"dim": [{"size": "1"}, {"size": "1"}, {"size": "40"}, {"size": "160"}]}}}, "dtype": {"type": "DT_FLOAT"}}}, {"name": "PartitionedCall/transpose_622/perm", "op": "Const", "attr": {"dtype": {"type": "DT_INT32"}, "value": {"tensor": {"dtype": "DT_INT32", "tensorShape": {"dim": [{"size": "4"}]}}}}}, {"name": "PartitionedCall/onnx_tf_prefix_p2o.BatchNormalization.194/mul", "op": "Const", "attr": {"dtype": {"type": "DT_FLOAT"}, "value": {"tensor": {"dtype": "DT_FLOAT", "tensorShape": {"dim": [{"size": "1"}, {"size": "160"}, {"size": "1"}, {"size": "1"}]}}}}}, {"name": "PartitionedCall/Const_1631", "op": "Const", "attr": {"value": {"tensor": {"dtype": "DT_INT32", "tensorShape": {"dim": [{"size": "4"}, {"size": "2"}]}}}, "dtype": {"type": "DT_INT32"}}}, {"name": "PartitionedCall/transpose_624/perm", "op": "Const", "attr": {"value": {"tensor": {"dtype": "DT_INT32", "tensorShape": {"dim": [{"size": "4"}]}}}, "dtype": {"type": "DT_INT32"}}}, {"name": "PartitionedCall/Reshape_847", "op": "Const", "attr": {"value": {"tensor": {"dtype": "DT_FLOAT", "tensorShape": {"dim": [{"size": "3"}, {"size": "3"}, {"size": "80"}, {"size": "1"}]}}}, "dtype": {"type": "DT_FLOAT"}}}, {"name": "PartitionedCall/transpose_625/perm", "op": "Const", "attr": {"dtype": {"type": "DT_INT32"}, "value": {"tensor": {"dtype": "DT_INT32", "tensorShape": {"dim": [{"size": "4"}]}}}}}, {"name": "PartitionedCall/onnx_tf_prefix_p2o.BatchNormalization.195/mul", "op": "Const", "attr": {"dtype": {"type": "DT_FLOAT"}, "value": {"tensor": {"dtype": "DT_FLOAT", "tensorShape": {"dim": [{"size": "1"}, {"size": "80"}, {"size": "1"}, {"size": "1"}]}}}}}, {"name": "PartitionedCall/onnx_tf_prefix_p2o.BatchNormalization.195/sub", "op": "Const", "attr": {"value": {"tensor": {"dtype": "DT_FLOAT", "tensorShape": {"dim": [{"size": "1"}, {"size": "80"}, {"size": "1"}, {"size": "1"}]}}}, "dtype": {"type": "DT_FLOAT"}}}, {"name": "PartitionedCall/transpose_627/perm", "op": "Const", "attr": {"value": {"tensor": {"dtype": "DT_INT32", "tensorShape": {"dim": [{"size": "4"}]}}}, "dtype": {"type": "DT_INT32"}}}, {"name": "PartitionedCall/split_128", "op": "Const", "attr": {"dtype": {"type": "DT_FLOAT"}, "value": {"tensor": {"dtype": "DT_FLOAT", "tensorShape": {"dim": [{"size": "1"}, {"size": "1"}, {"size": "80"}, {"size": "160"}]}}}}}, {"name": "PartitionedCall/transpose_628/perm", "op": "Const", "attr": {"value": {"tensor": {"dtype": "DT_INT32", "tensorShape": {"dim": [{"size": "4"}]}}}, "dtype": {"type": "DT_INT32"}}}, {"name": "PartitionedCall/onnx_tf_prefix_p2o.BatchNormalization.196/mul", "op": "Const", "attr": {"dtype": {"type": "DT_FLOAT"}, "value": {"tensor": {"dtype": "DT_FLOAT", "tensorShape": {"dim": [{"size": "1"}, {"size": "160"}, {"size": "1"}, {"size": "1"}]}}}}}, {"name": "PartitionedCall/onnx_tf_prefix_p2o.BatchNormalization.196/sub", "op": "Const", "attr": {"value": {"tensor": {"dtype": "DT_FLOAT", "tensorShape": {"dim": [{"size": "1"}, {"size": "160"}, {"size": "1"}, {"size": "1"}]}}}, "dtype": {"type": "DT_FLOAT"}}}, {"name": "PartitionedCall/transpose_632/perm", "op": "Const", "attr": {"value": {"tensor": {"dtype": "DT_INT32", "tensorShape": {"dim": [{"size": "4"}]}}}, "dtype": {"type": "DT_INT32"}}}, {"name": "PartitionedCall/strided_slice_79", "op": "Const", "attr": {"value": {"tensor": {"dtype": "DT_FLOAT", "tensorShape": {"dim": [{"size": "2"}]}}}, "dtype": {"type": "DT_FLOAT"}}}, {"name": "PartitionedCall/transpose_630/perm", "op": "Const", "attr": {"dtype": {"type": "DT_INT32"}, "value": {"tensor": {"dtype": "DT_INT32", "tensorShape": {"dim": [{"size": "4"}]}}}}}, {"name": "PartitionedCall/split_129", "op": "Const", "attr": {"dtype": {"type": "DT_FLOAT"}, "value": {"tensor": {"dtype": "DT_FLOAT", "tensorShape": {"dim": [{"size": "1"}, {"size": "1"}, {"size": "320"}, {"size": "160"}]}}}}}, {"name": "PartitionedCall/transpose_631/perm", "op": "Const", "attr": {"value": {"tensor": {"dtype": "DT_INT32", "tensorShape": {"dim": [{"size": "4"}]}}}, "dtype": {"type": "DT_INT32"}}}, {"name": "PartitionedCall/onnx_tf_prefix_p2o.BatchNormalization.197/mul", "op": "Const", "attr": {"dtype": {"type": "DT_FLOAT"}, "value": {"tensor": {"dtype": "DT_FLOAT", "tensorShape": {"dim": [{"size": "1"}, {"size": "160"}, {"size": "1"}, {"size": "1"}]}}}}}, {"name": "PartitionedCall/onnx_tf_prefix_p2o.BatchNormalization.197/sub", "op": "Const", "attr": {"dtype": {"type": "DT_FLOAT"}, "value": {"tensor": {"dtype": "DT_FLOAT", "tensorShape": {"dim": [{"size": "1"}, {"size": "160"}, {"size": "1"}, {"size": "1"}]}}}}}, {"name": "PartitionedCall/strided_slice_80/stack", "op": "Const", "attr": {"dtype": {"type": "DT_INT32"}, "value": {"tensor": {"dtype": "DT_INT32", "tensorShape": {"dim": [{"size": "1"}]}}}}}, {"name": "PartitionedCall/strided_slice_80/stack_1", "op": "Const", "attr": {"dtype": {"type": "DT_INT32"}, "value": {"tensor": {"dtype": "DT_INT32", "tensorShape": {"dim": [{"size": "1"}]}}}}}, {"name": "PartitionedCall/strided_slice_80/stack_2", "op": "Const", "attr": {"value": {"tensor": {"dtype": "DT_INT32", "tensorShape": {"dim": [{"size": "1"}]}}}, "dtype": {"type": "DT_INT32"}}}, {"name": "PartitionedCall/transpose_633/perm", "op": "Const", "attr": {"dtype": {"type": "DT_INT32"}, "value": {"tensor": {"dtype": "DT_INT32", "tensorShape": {"dim": [{"size": "4"}]}}}}}, {"name": "PartitionedCall/strided_slice_85/stack", "op": "Const", "attr": {"value": {"tensor": {"dtype": "DT_INT32", "tensorShape": {"dim": [{"size": "1"}]}}}, "dtype": {"type": "DT_INT32"}}}, {"name": "PartitionedCall/strided_slice_85/stack_1", "op": "Const", "attr": {"dtype": {"type": "DT_INT32"}, "value": {"tensor": {"dtype": "DT_INT32", "tensorShape": {"dim": [{"size": "1"}]}}}}}, {"name": "PartitionedCall/strided_slice_85/stack_2", "op": "Const", "attr": {"value": {"tensor": {"dtype": "DT_INT32", "tensorShape": {"dim": [{"size": "1"}]}}}, "dtype": {"type": "DT_INT32"}}}, {"name": "ConstantFolding/PartitionedCall/truediv_45_recip", "op": "Const", "attr": {"value": {"tensor": {"dtype": "DT_DOUBLE", "tensorShape": {}}}, "dtype": {"type": "DT_DOUBLE"}}}, {"name": "PartitionedCall/onnx_tf_prefix_p2o.Split.45/split_dim", "op": "Const", "attr": {"dtype": {"type": "DT_INT32"}, "value": {"tensor": {"dtype": "DT_INT32", "tensorShape": {}}}}}, {"name": "PartitionedCall/transpose_707/perm", "op": "Const", "attr": {"value": {"tensor": {"dtype": "DT_INT32", "tensorShape": {"dim": [{"size": "4"}]}}}, "dtype": {"type": "DT_INT32"}}}, {"name": "PartitionedCall/split_144", "op": "Const", "attr": {"dtype": {"type": "DT_FLOAT"}, "value": {"tensor": {"dtype": "DT_FLOAT", "tensorShape": {"dim": [{"size": "1"}, {"size": "1"}, {"size": "80"}, {"size": "80"}]}}}}}, {"name": "PartitionedCall/transpose_708/perm", "op": "Const", "attr": {"dtype": {"type": "DT_INT32"}, "value": {"tensor": {"dtype": "DT_INT32", "tensorShape": {"dim": [{"size": "4"}]}}}}}, {"name": "PartitionedCall/onnx_tf_prefix_p2o.BatchNormalization.222/mul", "op": "Const", "attr": {"dtype": {"type": "DT_FLOAT"}, "value": {"tensor": {"dtype": "DT_FLOAT", "tensorShape": {"dim": [{"size": "1"}, {"size": "80"}, {"size": "1"}, {"size": "1"}]}}}}}, {"name": "PartitionedCall/onnx_tf_prefix_p2o.BatchNormalization.222/sub", "op": "Const", "attr": {"dtype": {"type": "DT_FLOAT"}, "value": {"tensor": {"dtype": "DT_FLOAT", "tensorShape": {"dim": [{"size": "1"}, {"size": "80"}, {"size": "1"}, {"size": "1"}]}}}}}, {"name": "PartitionedCall/Const_1661", "op": "Const", "attr": {"dtype": {"type": "DT_INT32"}, "value": {"tensor": {"dtype": "DT_INT32", "tensorShape": {"dim": [{"size": "4"}, {"size": "2"}]}}}}}, {"name": "PartitionedCall/transpose_710/perm", "op": "Const", "attr": {"value": {"tensor": {"dtype": "DT_INT32", "tensorShape": {"dim": [{"size": "4"}]}}}, "dtype": {"type": "DT_INT32"}}}, {"name": "PartitionedCall/Reshape_970", "op": "Const", "attr": {"value": {"tensor": {"dtype": "DT_FLOAT", "tensorShape": {"dim": [{"size": "3"}, {"size": "3"}, {"size": "80"}, {"size": "1"}]}}}, "dtype": {"type": "DT_FLOAT"}}}, {"name": "PartitionedCall/transpose_711/perm", "op": "Const", "attr": {"dtype": {"type": "DT_INT32"}, "value": {"tensor": {"dtype": "DT_INT32", "tensorShape": {"dim": [{"size": "4"}]}}}}}, {"name": "PartitionedCall/onnx_tf_prefix_p2o.BatchNormalization.223/mul", "op": "Const", "attr": {"dtype": {"type": "DT_FLOAT"}, "value": {"tensor": {"dtype": "DT_FLOAT", "tensorShape": {"dim": [{"size": "1"}, {"size": "80"}, {"size": "1"}, {"size": "1"}]}}}}}, {"name": "PartitionedCall/onnx_tf_prefix_p2o.BatchNormalization.223/sub", "op": "Const", "attr": {"dtype": {"type": "DT_FLOAT"}, "value": {"tensor": {"dtype": "DT_FLOAT", "tensorShape": {"dim": [{"size": "1"}, {"size": "80"}, {"size": "1"}, {"size": "1"}]}}}}}, {"name": "PartitionedCall/transpose_713/perm", "op": "Const", "attr": {"dtype": {"type": "DT_INT32"}, "value": {"tensor": {"dtype": "DT_INT32", "tensorShape": {"dim": [{"size": "4"}]}}}}}, {"name": "PartitionedCall/split_145", "op": "Const", "attr": {"dtype": {"type": "DT_FLOAT"}, "value": {"tensor": {"dtype": "DT_FLOAT", "tensorShape": {"dim": [{"size": "1"}, {"size": "1"}, {"size": "80"}, {"size": "80"}]}}}}}, {"name": "PartitionedCall/transpose_714/perm", "op": "Const", "attr": {"value": {"tensor": {"dtype": "DT_INT32", "tensorShape": {"dim": [{"size": "4"}]}}}, "dtype": {"type": "DT_INT32"}}}, {"name": "PartitionedCall/onnx_tf_prefix_p2o.BatchNormalization.224/mul", "op": "Const", "attr": {"value": {"tensor": {"dtype": "DT_FLOAT", "tensorShape": {"dim": [{"size": "1"}, {"size": "80"}, {"size": "1"}, {"size": "1"}]}}}, "dtype": {"type": "DT_FLOAT"}}}, {"name": "PartitionedCall/onnx_tf_prefix_p2o.BatchNormalization.224/sub", "op": "Const", "attr": {"dtype": {"type": "DT_FLOAT"}, "value": {"tensor": {"dtype": "DT_FLOAT", "tensorShape": {"dim": [{"size": "1"}, {"size": "80"}, {"size": "1"}, {"size": "1"}]}}}}}, {"name": "PartitionedCall/onnx_tf_prefix_p2o.Concat.90/axis", "op": "Const", "attr": {"value": {"tensor": {"dtype": "DT_INT32", "tensorShape": {}}}, "dtype": {"type": "DT_INT32"}}}, {"name": "PartitionedCall/Squeeze_90", "op": "Const", "attr": {"dtype": {"type": "DT_INT64"}, "value": {"tensor": {"dtype": "DT_INT64", "tensorShape": {"dim": [{}]}}}}}, {"name": "PartitionedCall/GatherV2_90/axis", "op": "Const", "attr": {"dtype": {"type": "DT_INT32"}, "value": {"tensor": {"dtype": "DT_INT32", "tensorShape": {}}}}}, {"name": "PartitionedCall/zeros_90", "op": "Const", "attr": {"value": {"tensor": {"dtype": "DT_INT64", "tensorShape": {}}}, "dtype": {"type": "DT_INT64"}}}, {"name": "PartitionedCall/onnx_tf_prefix_p2o.Transpose.45/perm", "op": "Const", "attr": {"dtype": {"type": "DT_INT32"}, "value": {"tensor": {"dtype": "DT_INT32", "tensorShape": {"dim": [{"size": "5"}]}}}}}, {"name": "PartitionedCall/Squeeze_91", "op": "Const", "attr": {"dtype": {"type": "DT_INT64"}, "value": {"tensor": {"dtype": "DT_INT64", "tensorShape": {"dim": [{}]}}}}}, {"name": "PartitionedCall/GatherV2_91/axis", "op": "Const", "attr": {"dtype": {"type": "DT_INT32"}, "value": {"tensor": {"dtype": "DT_INT32", "tensorShape": {}}}}}, {"name": "PartitionedCall/zeros_91", "op": "Const", "attr": {"value": {"tensor": {"dtype": "DT_INT64", "tensorShape": {}}}, "dtype": {"type": "DT_INT64"}}}, {"name": "PartitionedCall/strided_slice_86/stack", "op": "Const", "attr": {"value": {"tensor": {"dtype": "DT_INT32", "tensorShape": {"dim": [{"size": "1"}]}}}, "dtype": {"type": "DT_INT32"}}}, {"name": "PartitionedCall/strided_slice_86/stack_1", "op": "Const", "attr": {"dtype": {"type": "DT_INT32"}, "value": {"tensor": {"dtype": "DT_INT32", "tensorShape": {"dim": [{"size": "1"}]}}}}}, {"name": "PartitionedCall/strided_slice_86/stack_2", "op": "Const", "attr": {"value": {"tensor": {"dtype": "DT_INT32", "tensorShape": {"dim": [{"size": "1"}]}}}, "dtype": {"type": "DT_INT32"}}}, {"name": "ConstantFolding/PartitionedCall/truediv_46_recip", "op": "Const", "attr": {"value": {"tensor": {"dtype": "DT_DOUBLE", "tensorShape": {}}}, "dtype": {"type": "DT_DOUBLE"}}}, {"name": "PartitionedCall/onnx_tf_prefix_p2o.Split.46/split_dim", "op": "Const", "attr": {"value": {"tensor": {"dtype": "DT_INT32", "tensorShape": {}}}, "dtype": {"type": "DT_INT32"}}}, {"name": "PartitionedCall/transpose_716/perm", "op": "Const", "attr": {"dtype": {"type": "DT_INT32"}, "value": {"tensor": {"dtype": "DT_INT32", "tensorShape": {"dim": [{"size": "4"}]}}}}}, {"name": "PartitionedCall/split_146", "op": "Const", "attr": {"value": {"tensor": {"dtype": "DT_FLOAT", "tensorShape": {"dim": [{"size": "1"}, {"size": "1"}, {"size": "80"}, {"size": "80"}]}}}, "dtype": {"type": "DT_FLOAT"}}}, {"name": "PartitionedCall/transpose_717/perm", "op": "Const", "attr": {"value": {"tensor": {"dtype": "DT_INT32", "tensorShape": {"dim": [{"size": "4"}]}}}, "dtype": {"type": "DT_INT32"}}}, {"name": "PartitionedCall/onnx_tf_prefix_p2o.BatchNormalization.225/mul", "op": "Const", "attr": {"dtype": {"type": "DT_FLOAT"}, "value": {"tensor": {"dtype": "DT_FLOAT", "tensorShape": {"dim": [{"size": "1"}, {"size": "80"}, {"size": "1"}, {"size": "1"}]}}}}}, {"name": "PartitionedCall/onnx_tf_prefix_p2o.BatchNormalization.225/sub", "op": "Const", "attr": {"dtype": {"type": "DT_FLOAT"}, "value": {"tensor": {"dtype": "DT_FLOAT", "tensorShape": {"dim": [{"size": "1"}, {"size": "80"}, {"size": "1"}, {"size": "1"}]}}}}}, {"name": "PartitionedCall/Const_1666", "op": "Const", "attr": {"dtype": {"type": "DT_INT32"}, "value": {"tensor": {"dtype": "DT_INT32", "tensorShape": {"dim": [{"size": "4"}, {"size": "2"}]}}}}}, {"name": "PartitionedCall/transpose_719/perm", "op": "Const", "attr": {"value": {"tensor": {"dtype": "DT_INT32", "tensorShape": {"dim": [{"size": "4"}]}}}, "dtype": {"type": "DT_INT32"}}}, {"name": "PartitionedCall/Reshape_983", "op": "Const", "attr": {"value": {"tensor": {"dtype": "DT_FLOAT", "tensorShape": {"dim": [{"size": "3"}, {"size": "3"}, {"size": "80"}, {"size": "1"}]}}}, "dtype": {"type": "DT_FLOAT"}}}, {"name": "PartitionedCall/transpose_720/perm", "op": "Const", "attr": {"dtype": {"type": "DT_INT32"}, "value": {"tensor": {"dtype": "DT_INT32", "tensorShape": {"dim": [{"size": "4"}]}}}}}, {"name": "PartitionedCall/onnx_tf_prefix_p2o.BatchNormalization.226/mul", "op": "Const", "attr": {"value": {"tensor": {"dtype": "DT_FLOAT", "tensorShape": {"dim": [{"size": "1"}, {"size": "80"}, {"size": "1"}, {"size": "1"}]}}}, "dtype": {"type": "DT_FLOAT"}}}, {"name": "PartitionedCall/onnx_tf_prefix_p2o.BatchNormalization.226/sub", "op": "Const", "attr": {"dtype": {"type": "DT_FLOAT"}, "value": {"tensor": {"dtype": "DT_FLOAT", "tensorShape": {"dim": [{"size": "1"}, {"size": "80"}, {"size": "1"}, {"size": "1"}]}}}}}, {"name": "PartitionedCall/transpose_722/perm", "op": "Const", "attr": {"value": {"tensor": {"dtype": "DT_INT32", "tensorShape": {"dim": [{"size": "4"}]}}}, "dtype": {"type": "DT_INT32"}}}, {"name": "PartitionedCall/split_147", "op": "Const", "attr": {"value": {"tensor": {"dtype": "DT_FLOAT", "tensorShape": {"dim": [{"size": "1"}, {"size": "1"}, {"size": "80"}, {"size": "80"}]}}}, "dtype": {"type": "DT_FLOAT"}}}, {"name": "PartitionedCall/transpose_723/perm", "op": "Const", "attr": {"value": {"tensor": {"dtype": "DT_INT32", "tensorShape": {"dim": [{"size": "4"}]}}}, "dtype": {"type": "DT_INT32"}}}, {"name": "PartitionedCall/onnx_tf_prefix_p2o.BatchNormalization.227/mul", "op": "Const", "attr": {"value": {"tensor": {"dtype": "DT_FLOAT", "tensorShape": {"dim": [{"size": "1"}, {"size": "80"}, {"size": "1"}, {"size": "1"}]}}}, "dtype": {"type": "DT_FLOAT"}}}, {"name": "PartitionedCall/onnx_tf_prefix_p2o.BatchNormalization.227/sub", "op": "Const", "attr": {"dtype": {"type": "DT_FLOAT"}, "value": {"tensor": {"dtype": "DT_FLOAT", "tensorShape": {"dim": [{"size": "1"}, {"size": "80"}, {"size": "1"}, {"size": "1"}]}}}}}, {"name": "PartitionedCall/onnx_tf_prefix_p2o.Concat.92/axis", "op": "Const", "attr": {"value": {"tensor": {"dtype": "DT_INT32", "tensorShape": {}}}, "dtype": {"type": "DT_INT32"}}}, {"name": "PartitionedCall/Squeeze_92", "op": "Const", "attr": {"dtype": {"type": "DT_INT64"}, "value": {"tensor": {"dtype": "DT_INT64", "tensorShape": {"dim": [{}]}}}}}, {"name": "PartitionedCall/GatherV2_92/axis", "op": "Const", "attr": {"dtype": {"type": "DT_INT32"}, "value": {"tensor": {"dtype": "DT_INT32", "tensorShape": {}}}}}, {"name": "PartitionedCall/zeros_92", "op": "Const", "attr": {"value": {"tensor": {"dtype": "DT_INT64", "tensorShape": {}}}, "dtype": {"type": "DT_INT64"}}}, {"name": "PartitionedCall/onnx_tf_prefix_p2o.Transpose.46/perm", "op": "Const", "attr": {"value": {"tensor": {"dtype": "DT_INT32", "tensorShape": {"dim": [{"size": "5"}]}}}, "dtype": {"type": "DT_INT32"}}}, {"name": "PartitionedCall/Squeeze_93", "op": "Const", "attr": {"value": {"tensor": {"dtype": "DT_INT64", "tensorShape": {"dim": [{}]}}}, "dtype": {"type": "DT_INT64"}}}, {"name": "PartitionedCall/GatherV2_93/axis", "op": "Const", "attr": {"dtype": {"type": "DT_INT32"}, "value": {"tensor": {"dtype": "DT_INT32", "tensorShape": {}}}}}, {"name": "PartitionedCall/zeros_93", "op": "Const", "attr": {"value": {"tensor": {"dtype": "DT_INT64", "tensorShape": {}}}, "dtype": {"type": "DT_INT64"}}}, {"name": "PartitionedCall/Const_1708", "op": "Const", "attr": {"value": {"tensor": {"dtype": "DT_INT32", "tensorShape": {"dim": [{"size": "4"}, {"size": "2"}]}}}, "dtype": {"type": "DT_INT32"}}}, {"name": "PartitionedCall/transpose_827/perm", "op": "Const", "attr": {"dtype": {"type": "DT_INT32"}, "value": {"tensor": {"dtype": "DT_INT32", "tensorShape": {"dim": [{"size": "4"}]}}}}}, {"name": "PartitionedCall/Reshape_1123", "op": "Const", "attr": {"dtype": {"type": "DT_FLOAT"}, "value": {"tensor": {"dtype": "DT_FLOAT", "tensorShape": {"dim": [{"size": "3"}, {"size": "3"}, {"size": "160"}, {"size": "1"}]}}}}}, {"name": "PartitionedCall/transpose_828/perm", "op": "Const", "attr": {"dtype": {"type": "DT_INT32"}, "value": {"tensor": {"dtype": "DT_INT32", "tensorShape": {"dim": [{"size": "4"}]}}}}}, {"name": "PartitionedCall/onnx_tf_prefix_p2o.BatchNormalization.258/mul", "op": "Const", "attr": {"value": {"tensor": {"dtype": "DT_FLOAT", "tensorShape": {"dim": [{"size": "1"}, {"size": "160"}, {"size": "1"}, {"size": "1"}]}}}, "dtype": {"type": "DT_FLOAT"}}}, {"name": "PartitionedCall/onnx_tf_prefix_p2o.BatchNormalization.258/sub", "op": "Const", "attr": {"dtype": {"type": "DT_FLOAT"}, "value": {"tensor": {"dtype": "DT_FLOAT", "tensorShape": {"dim": [{"size": "1"}, {"size": "160"}, {"size": "1"}, {"size": "1"}]}}}}}, {"name": "PartitionedCall/transpose_830/perm", "op": "Const", "attr": {"value": {"tensor": {"dtype": "DT_INT32", "tensorShape": {"dim": [{"size": "4"}]}}}, "dtype": {"type": "DT_INT32"}}}, {"name": "PartitionedCall/split_167", "op": "Const", "attr": {"value": {"tensor": {"dtype": "DT_FLOAT", "tensorShape": {"dim": [{"size": "1"}, {"size": "1"}, {"size": "160"}, {"size": "320"}]}}}, "dtype": {"type": "DT_FLOAT"}}}, {"name": "PartitionedCall/transpose_831/perm", "op": "Const", "attr": {"value": {"tensor": {"dtype": "DT_INT32", "tensorShape": {"dim": [{"size": "4"}]}}}, "dtype": {"type": "DT_INT32"}}}, {"name": "PartitionedCall/onnx_tf_prefix_p2o.BatchNormalization.259/mul", "op": "Const", "attr": {"dtype": {"type": "DT_FLOAT"}, "value": {"tensor": {"dtype": "DT_FLOAT", "tensorShape": {"dim": [{"size": "1"}, {"size": "320"}, {"size": "1"}, {"size": "1"}]}}}}}, {"name": "PartitionedCall/onnx_tf_prefix_p2o.BatchNormalization.259/sub", "op": "Const", "attr": {"value": {"tensor": {"dtype": "DT_FLOAT", "tensorShape": {"dim": [{"size": "1"}, {"size": "320"}, {"size": "1"}, {"size": "1"}]}}}, "dtype": {"type": "DT_FLOAT"}}}, {"name": "PartitionedCall/Const_1679", "op": "Const", "attr": {"dtype": {"type": "DT_INT64"}, "value": {"tensor": {"dtype": "DT_INT64", "tensorShape": {"dim": [{"size": "4"}]}}}}}, {"name": "PartitionedCall/Where_97", "op": "Const", "attr": {"value": {"tensor": {"dtype": "DT_INT64", "tensorShape": {"dim": [{}, {"size": "1"}]}}}, "dtype": {"type": "DT_INT64"}}}, {"name": "PartitionedCall/Cast_186", "op": "Const", "attr": {"value": {"tensor": {"dtype": "DT_INT64", "tensorShape": {"dim": [{"size": "1"}]}}}, "dtype": {"type": "DT_INT64"}}}, {"name": "PartitionedCall/Const_1677", "op": "Const", "attr": {"dtype": {"type": "DT_INT64"}, "value": {"tensor": {"dtype": "DT_INT64", "tensorShape": {"dim": [{"size": "5"}]}}}}}, {"name": "PartitionedCall/Where_96", "op": "Const", "attr": {"value": {"tensor": {"dtype": "DT_INT64", "tensorShape": {"dim": [{}, {"size": "1"}]}}}, "dtype": {"type": "DT_INT64"}}}, {"name": "PartitionedCall/Cast_185", "op": "Const", "attr": {"dtype": {"type": "DT_INT64"}, "value": {"tensor": {"dtype": "DT_INT64", "tensorShape": {"dim": [{"size": "1"}]}}}}}, {"name": "PartitionedCall/Const_1674", "op": "Const", "attr": {"dtype": {"type": "DT_INT64"}, "value": {"tensor": {"dtype": "DT_INT64", "tensorShape": {"dim": [{"size": "4"}]}}}}}, {"name": "PartitionedCall/Where_95", "op": "Const", "attr": {"dtype": {"type": "DT_INT64"}, "value": {"tensor": {"dtype": "DT_INT64", "tensorShape": {"dim": [{}, {"size": "1"}]}}}}}, {"name": "PartitionedCall/Cast_183", "op": "Const", "attr": {"value": {"tensor": {"dtype": "DT_INT64", "tensorShape": {"dim": [{"size": "1"}]}}}, "dtype": {"type": "DT_INT64"}}}, {"name": "PartitionedCall/Const_1672", "op": "Const", "attr": {"dtype": {"type": "DT_INT64"}, "value": {"tensor": {"dtype": "DT_INT64", "tensorShape": {"dim": [{"size": "5"}]}}}}}, {"name": "PartitionedCall/Where_94", "op": "Const", "attr": {"value": {"tensor": {"dtype": "DT_INT64", "tensorShape": {"dim": [{}, {"size": "1"}]}}}, "dtype": {"type": "DT_INT64"}}}, {"name": "PartitionedCall/Cast_182", "op": "Const", "attr": {"value": {"tensor": {"dtype": "DT_INT64", "tensorShape": {"dim": [{"size": "1"}]}}}, "dtype": {"type": "DT_INT64"}}}, {"name": "PartitionedCall/ArithmeticOptimizer/AddOpsRewrite_Leaf_0_onnx_tf_prefix_p2o.Add.112", "op": "Const", "attr": {"value": {"tensor": {"dtype": "DT_FLOAT", "tensorShape": {"dim": [{"size": "1"}, {"size": "320"}, {"size": "1"}, {"size": "1"}]}}}, "dtype": {"type": "DT_FLOAT"}}}, {"name": "PartitionedCall/Const_1581", "op": "Const", "attr": {"dtype": {"type": "DT_INT64"}, "value": {"tensor": {"dtype": "DT_INT64", "tensorShape": {"dim": [{"size": "4"}]}}}}}, {"name": "PartitionedCall/Where_69", "op": "Const", "attr": {"value": {"tensor": {"dtype": "DT_INT64", "tensorShape": {"dim": [{}, {"size": "1"}]}}}, "dtype": {"type": "DT_INT64"}}}, {"name": "PartitionedCall/Cast_132", "op": "Const", "attr": {"value": {"tensor": {"dtype": "DT_INT64", "tensorShape": {"dim": [{"size": "1"}]}}}, "dtype": {"type": "DT_INT64"}}}, {"name": "PartitionedCall/Const_1579", "op": "Const", "attr": {"value": {"tensor": {"dtype": "DT_INT64", "tensorShape": {"dim": [{"size": "5"}]}}}, "dtype": {"type": "DT_INT64"}}}, {"name": "PartitionedCall/Where_68", "op": "Const", "attr": {"dtype": {"type": "DT_INT64"}, "value": {"tensor": {"dtype": "DT_INT64", "tensorShape": {"dim": [{}, {"size": "1"}]}}}}}, {"name": "PartitionedCall/Cast_131", "op": "Const", "attr": {"dtype": {"type": "DT_INT64"}, "value": {"tensor": {"dtype": "DT_INT64", "tensorShape": {"dim": [{"size": "1"}]}}}}}, {"name": "PartitionedCall/Const_1576", "op": "Const", "attr": {"dtype": {"type": "DT_INT64"}, "value": {"tensor": {"dtype": "DT_INT64", "tensorShape": {"dim": [{"size": "4"}]}}}}}, {"name": "PartitionedCall/Where_67", "op": "Const", "attr": {"dtype": {"type": "DT_INT64"}, "value": {"tensor": {"dtype": "DT_INT64", "tensorShape": {"dim": [{}, {"size": "1"}]}}}}}, {"name": "PartitionedCall/Cast_129", "op": "Const", "attr": {"value": {"tensor": {"dtype": "DT_INT64", "tensorShape": {"dim": [{"size": "1"}]}}}, "dtype": {"type": "DT_INT64"}}}, {"name": "PartitionedCall/Const_1574", "op": "Const", "attr": {"dtype": {"type": "DT_INT64"}, "value": {"tensor": {"dtype": "DT_INT64", "tensorShape": {"dim": [{"size": "5"}]}}}}}, {"name": "PartitionedCall/Where_66", "op": "Const", "attr": {"value": {"tensor": {"dtype": "DT_INT64", "tensorShape": {"dim": [{}, {"size": "1"}]}}}, "dtype": {"type": "DT_INT64"}}}, {"name": "PartitionedCall/Cast_128", "op": "Const", "attr": {"value": {"tensor": {"dtype": "DT_INT64", "tensorShape": {"dim": [{"size": "1"}]}}}, "dtype": {"type": "DT_INT64"}}}, {"name": "PartitionedCall/strided_slice_61/stack", "op": "Const", "attr": {"value": {"tensor": {"dtype": "DT_INT32", "tensorShape": {"dim": [{"size": "1"}]}}}, "dtype": {"type": "DT_INT32"}}}, {"name": "PartitionedCall/strided_slice_61/stack_1", "op": "Const", "attr": {"dtype": {"type": "DT_INT32"}, "value": {"tensor": {"dtype": "DT_INT32", "tensorShape": {"dim": [{"size": "1"}]}}}}}, {"name": "PartitionedCall/strided_slice_61/stack_2", "op": "Const", "attr": {"value": {"tensor": {"dtype": "DT_INT32", "tensorShape": {"dim": [{"size": "1"}]}}}, "dtype": {"type": "DT_INT32"}}}, {"name": "ConstantFolding/PartitionedCall/truediv_33_recip", "op": "Const", "attr": {"dtype": {"type": "DT_DOUBLE"}, "value": {"tensor": {"dtype": "DT_DOUBLE", "tensorShape": {}}}}}, {"name": "PartitionedCall/onnx_tf_prefix_p2o.Split.33/split_dim", "op": "Const", "attr": {"value": {"tensor": {"dtype": "DT_INT32", "tensorShape": {}}}, "dtype": {"type": "DT_INT32"}}}, {"name": "PartitionedCall/transpose_509/perm", "op": "Const", "attr": {"dtype": {"type": "DT_INT32"}, "value": {"tensor": {"dtype": "DT_INT32", "tensorShape": {"dim": [{"size": "4"}]}}}}}, {"name": "PartitionedCall/split_104", "op": "Const", "attr": {"value": {"tensor": {"dtype": "DT_FLOAT", "tensorShape": {"dim": [{"size": "1"}, {"size": "1"}, {"size": "20"}, {"size": "20"}]}}}, "dtype": {"type": "DT_FLOAT"}}}, {"name": "PartitionedCall/transpose_510/perm", "op": "Const", "attr": {"dtype": {"type": "DT_INT32"}, "value": {"tensor": {"dtype": "DT_INT32", "tensorShape": {"dim": [{"size": "4"}]}}}}}, {"name": "PartitionedCall/onnx_tf_prefix_p2o.BatchNormalization.160/mul", "op": "Const", "attr": {"dtype": {"type": "DT_FLOAT"}, "value": {"tensor": {"dtype": "DT_FLOAT", "tensorShape": {"dim": [{"size": "1"}, {"size": "20"}, {"size": "1"}, {"size": "1"}]}}}}}, {"name": "PartitionedCall/onnx_tf_prefix_p2o.BatchNormalization.160/sub", "op": "Const", "attr": {"dtype": {"type": "DT_FLOAT"}, "value": {"tensor": {"dtype": "DT_FLOAT", "tensorShape": {"dim": [{"size": "1"}, {"size": "20"}, {"size": "1"}, {"size": "1"}]}}}}}, {"name": "PartitionedCall/Const_1573", "op": "Const", "attr": {"value": {"tensor": {"dtype": "DT_INT32", "tensorShape": {"dim": [{"size": "4"}, {"size": "2"}]}}}, "dtype": {"type": "DT_INT32"}}}, {"name": "PartitionedCall/transpose_512/perm", "op": "Const", "attr": {"dtype": {"type": "DT_INT32"}, "value": {"tensor": {"dtype": "DT_INT32", "tensorShape": {"dim": [{"size": "4"}]}}}}}, {"name": "PartitionedCall/Reshape_700", "op": "Const", "attr": {"dtype": {"type": "DT_FLOAT"}, "value": {"tensor": {"dtype": "DT_FLOAT", "tensorShape": {"dim": [{"size": "3"}, {"size": "3"}, {"size": "20"}, {"size": "1"}]}}}}}, {"name": "PartitionedCall/transpose_513/perm", "op": "Const", "attr": {"value": {"tensor": {"dtype": "DT_INT32", "tensorShape": {"dim": [{"size": "4"}]}}}, "dtype": {"type": "DT_INT32"}}}, {"name": "PartitionedCall/onnx_tf_prefix_p2o.BatchNormalization.161/mul", "op": "Const", "attr": {"dtype": {"type": "DT_FLOAT"}, "value": {"tensor": {"dtype": "DT_FLOAT", "tensorShape": {"dim": [{"size": "1"}, {"size": "20"}, {"size": "1"}, {"size": "1"}]}}}}}, {"name": "PartitionedCall/onnx_tf_prefix_p2o.BatchNormalization.161/sub", "op": "Const", "attr": {"dtype": {"type": "DT_FLOAT"}, "value": {"tensor": {"dtype": "DT_FLOAT", "tensorShape": {"dim": [{"size": "1"}, {"size": "20"}, {"size": "1"}, {"size": "1"}]}}}}}, {"name": "PartitionedCall/transpose_515/perm", "op": "Const", "attr": {"value": {"tensor": {"dtype": "DT_INT32", "tensorShape": {"dim": [{"size": "4"}]}}}, "dtype": {"type": "DT_INT32"}}}, {"name": "PartitionedCall/split_105", "op": "Const", "attr": {"value": {"tensor": {"dtype": "DT_FLOAT", "tensorShape": {"dim": [{"size": "1"}, {"size": "1"}, {"size": "20"}, {"size": "20"}]}}}, "dtype": {"type": "DT_FLOAT"}}}, {"name": "PartitionedCall/transpose_516/perm", "op": "Const", "attr": {"dtype": {"type": "DT_INT32"}, "value": {"tensor": {"dtype": "DT_INT32", "tensorShape": {"dim": [{"size": "4"}]}}}}}, {"name": "PartitionedCall/onnx_tf_prefix_p2o.BatchNormalization.162/mul", "op": "Const", "attr": {"value": {"tensor": {"dtype": "DT_FLOAT", "tensorShape": {"dim": [{"size": "1"}, {"size": "20"}, {"size": "1"}, {"size": "1"}]}}}, "dtype": {"type": "DT_FLOAT"}}}, {"name": "PartitionedCall/onnx_tf_prefix_p2o.BatchNormalization.162/sub", "op": "Const", "attr": {"value": {"tensor": {"dtype": "DT_FLOAT", "tensorShape": {"dim": [{"size": "1"}, {"size": "20"}, {"size": "1"}, {"size": "1"}]}}}, "dtype": {"type": "DT_FLOAT"}}}, {"name": "PartitionedCall/onnx_tf_prefix_p2o.Concat.66/axis", "op": "Const", "attr": {"value": {"tensor": {"dtype": "DT_INT32", "tensorShape": {}}}, "dtype": {"type": "DT_INT32"}}}, {"name": "PartitionedCall/Squeeze_66", "op": "Const", "attr": {"dtype": {"type": "DT_INT64"}, "value": {"tensor": {"dtype": "DT_INT64", "tensorShape": {"dim": [{}]}}}}}, {"name": "PartitionedCall/GatherV2_66/axis", "op": "Const", "attr": {"dtype": {"type": "DT_INT32"}, "value": {"tensor": {"dtype": "DT_INT32", "tensorShape": {}}}}}, {"name": "PartitionedCall/zeros_66", "op": "Const", "attr": {"value": {"tensor": {"dtype": "DT_INT64", "tensorShape": {}}}, "dtype": {"type": "DT_INT64"}}}, {"name": "PartitionedCall/onnx_tf_prefix_p2o.Transpose.33/perm", "op": "Const", "attr": {"value": {"tensor": {"dtype": "DT_INT32", "tensorShape": {"dim": [{"size": "5"}]}}}, "dtype": {"type": "DT_INT32"}}}, {"name": "PartitionedCall/Squeeze_67", "op": "Const", "attr": {"value": {"tensor": {"dtype": "DT_INT64", "tensorShape": {"dim": [{}]}}}, "dtype": {"type": "DT_INT64"}}}, {"name": "PartitionedCall/GatherV2_67/axis", "op": "Const", "attr": {"dtype": {"type": "DT_INT32"}, "value": {"tensor": {"dtype": "DT_INT32", "tensorShape": {}}}}}, {"name": "PartitionedCall/zeros_67", "op": "Const", "attr": {"dtype": {"type": "DT_INT64"}, "value": {"tensor": {"dtype": "DT_INT64", "tensorShape": {}}}}}, {"name": "PartitionedCall/strided_slice_62/stack", "op": "Const", "attr": {"value": {"tensor": {"dtype": "DT_INT32", "tensorShape": {"dim": [{"size": "1"}]}}}, "dtype": {"type": "DT_INT32"}}}, {"name": "PartitionedCall/strided_slice_62/stack_1", "op": "Const", "attr": {"dtype": {"type": "DT_INT32"}, "value": {"tensor": {"dtype": "DT_INT32", "tensorShape": {"dim": [{"size": "1"}]}}}}}, {"name": "PartitionedCall/strided_slice_62/stack_2", "op": "Const", "attr": {"dtype": {"type": "DT_INT32"}, "value": {"tensor": {"dtype": "DT_INT32", "tensorShape": {"dim": [{"size": "1"}]}}}}}, {"name": "ConstantFolding/PartitionedCall/truediv_34_recip", "op": "Const", "attr": {"dtype": {"type": "DT_DOUBLE"}, "value": {"tensor": {"dtype": "DT_DOUBLE", "tensorShape": {}}}}}, {"name": "PartitionedCall/onnx_tf_prefix_p2o.Split.34/split_dim", "op": "Const", "attr": {"dtype": {"type": "DT_INT32"}, "value": {"tensor": {"dtype": "DT_INT32", "tensorShape": {}}}}}, {"name": "PartitionedCall/transpose_518/perm", "op": "Const", "attr": {"dtype": {"type": "DT_INT32"}, "value": {"tensor": {"dtype": "DT_INT32", "tensorShape": {"dim": [{"size": "4"}]}}}}}, {"name": "PartitionedCall/split_106", "op": "Const", "attr": {"value": {"tensor": {"dtype": "DT_FLOAT", "tensorShape": {"dim": [{"size": "1"}, {"size": "1"}, {"size": "20"}, {"size": "20"}]}}}, "dtype": {"type": "DT_FLOAT"}}}, {"name": "PartitionedCall/transpose_519/perm", "op": "Const", "attr": {"value": {"tensor": {"dtype": "DT_INT32", "tensorShape": {"dim": [{"size": "4"}]}}}, "dtype": {"type": "DT_INT32"}}}, {"name": "PartitionedCall/onnx_tf_prefix_p2o.BatchNormalization.163/mul", "op": "Const", "attr": {"dtype": {"type": "DT_FLOAT"}, "value": {"tensor": {"dtype": "DT_FLOAT", "tensorShape": {"dim": [{"size": "1"}, {"size": "20"}, {"size": "1"}, {"size": "1"}]}}}}}, {"name": "PartitionedCall/onnx_tf_prefix_p2o.BatchNormalization.163/sub", "op": "Const", "attr": {"value": {"tensor": {"dtype": "DT_FLOAT", "tensorShape": {"dim": [{"size": "1"}, {"size": "20"}, {"size": "1"}, {"size": "1"}]}}}, "dtype": {"type": "DT_FLOAT"}}}, {"name": "PartitionedCall/Const_1578", "op": "Const", "attr": {"dtype": {"type": "DT_INT32"}, "value": {"tensor": {"dtype": "DT_INT32", "tensorShape": {"dim": [{"size": "4"}, {"size": "2"}]}}}}}, {"name": "PartitionedCall/transpose_521/perm", "op": "Const", "attr": {"dtype": {"type": "DT_INT32"}, "value": {"tensor": {"dtype": "DT_INT32", "tensorShape": {"dim": [{"size": "4"}]}}}}}, {"name": "PartitionedCall/Reshape_713", "op": "Const", "attr": {"dtype": {"type": "DT_FLOAT"}, "value": {"tensor": {"dtype": "DT_FLOAT", "tensorShape": {"dim": [{"size": "3"}, {"size": "3"}, {"size": "20"}, {"size": "1"}]}}}}}, {"name": "PartitionedCall/transpose_522/perm", "op": "Const", "attr": {"dtype": {"type": "DT_INT32"}, "value": {"tensor": {"dtype": "DT_INT32", "tensorShape": {"dim": [{"size": "4"}]}}}}}, {"name": "PartitionedCall/onnx_tf_prefix_p2o.BatchNormalization.164/mul", "op": "Const", "attr": {"value": {"tensor": {"dtype": "DT_FLOAT", "tensorShape": {"dim": [{"size": "1"}, {"size": "20"}, {"size": "1"}, {"size": "1"}]}}}, "dtype": {"type": "DT_FLOAT"}}}, {"name": "PartitionedCall/onnx_tf_prefix_p2o.BatchNormalization.164/sub", "op": "Const", "attr": {"dtype": {"type": "DT_FLOAT"}, "value": {"tensor": {"dtype": "DT_FLOAT", "tensorShape": {"dim": [{"size": "1"}, {"size": "20"}, {"size": "1"}, {"size": "1"}]}}}}}, {"name": "PartitionedCall/transpose_524/perm", "op": "Const", "attr": {"value": {"tensor": {"dtype": "DT_INT32", "tensorShape": {"dim": [{"size": "4"}]}}}, "dtype": {"type": "DT_INT32"}}}, {"name": "PartitionedCall/split_107", "op": "Const", "attr": {"dtype": {"type": "DT_FLOAT"}, "value": {"tensor": {"dtype": "DT_FLOAT", "tensorShape": {"dim": [{"size": "1"}, {"size": "1"}, {"size": "20"}, {"size": "20"}]}}}}}, {"name": "PartitionedCall/transpose_525/perm", "op": "Const", "attr": {"dtype": {"type": "DT_INT32"}, "value": {"tensor": {"dtype": "DT_INT32", "tensorShape": {"dim": [{"size": "4"}]}}}}}, {"name": "PartitionedCall/onnx_tf_prefix_p2o.BatchNormalization.165/mul", "op": "Const", "attr": {"value": {"tensor": {"dtype": "DT_FLOAT", "tensorShape": {"dim": [{"size": "1"}, {"size": "20"}, {"size": "1"}, {"size": "1"}]}}}, "dtype": {"type": "DT_FLOAT"}}}, {"name": "PartitionedCall/onnx_tf_prefix_p2o.BatchNormalization.165/sub", "op": "Const", "attr": {"value": {"tensor": {"dtype": "DT_FLOAT", "tensorShape": {"dim": [{"size": "1"}, {"size": "20"}, {"size": "1"}, {"size": "1"}]}}}, "dtype": {"type": "DT_FLOAT"}}}, {"name": "PartitionedCall/onnx_tf_prefix_p2o.Concat.68/axis", "op": "Const", "attr": {"value": {"tensor": {"dtype": "DT_INT32", "tensorShape": {}}}, "dtype": {"type": "DT_INT32"}}}, {"name": "PartitionedCall/Squeeze_68", "op": "Const", "attr": {"dtype": {"type": "DT_INT64"}, "value": {"tensor": {"dtype": "DT_INT64", "tensorShape": {"dim": [{}]}}}}}, {"name": "PartitionedCall/GatherV2_68/axis", "op": "Const", "attr": {"value": {"tensor": {"dtype": "DT_INT32", "tensorShape": {}}}, "dtype": {"type": "DT_INT32"}}}, {"name": "PartitionedCall/zeros_68", "op": "Const", "attr": {"value": {"tensor": {"dtype": "DT_INT64", "tensorShape": {}}}, "dtype": {"type": "DT_INT64"}}}, {"name": "PartitionedCall/onnx_tf_prefix_p2o.Transpose.34/perm", "op": "Const", "attr": {"value": {"tensor": {"dtype": "DT_INT32", "tensorShape": {"dim": [{"size": "5"}]}}}, "dtype": {"type": "DT_INT32"}}}, {"name": "PartitionedCall/Squeeze_69", "op": "Const", "attr": {"dtype": {"type": "DT_INT64"}, "value": {"tensor": {"dtype": "DT_INT64", "tensorShape": {"dim": [{}]}}}}}, {"name": "PartitionedCall/GatherV2_69/axis", "op": "Const", "attr": {"value": {"tensor": {"dtype": "DT_INT32", "tensorShape": {}}}, "dtype": {"type": "DT_INT32"}}}, {"name": "PartitionedCall/zeros_69", "op": "Const", "attr": {"dtype": {"type": "DT_INT64"}, "value": {"tensor": {"dtype": "DT_INT64", "tensorShape": {}}}}}, {"name": "PartitionedCall/transpose_583/perm", "op": "Const", "attr": {"value": {"tensor": {"dtype": "DT_INT32", "tensorShape": {"dim": [{"size": "4"}]}}}, "dtype": {"type": "DT_INT32"}}}, {"name": "PartitionedCall/strided_slice_69", "op": "Const", "attr": {"dtype": {"type": "DT_FLOAT"}, "value": {"tensor": {"dtype": "DT_FLOAT", "tensorShape": {"dim": [{"size": "2"}]}}}}}, {"name": "PartitionedCall/transpose_581/perm", "op": "Const", "attr": {"dtype": {"type": "DT_INT32"}, "value": {"tensor": {"dtype": "DT_INT32", "tensorShape": {"dim": [{"size": "4"}]}}}}}, {"name": "PartitionedCall/split_120", "op": "Const", "attr": {"dtype": {"type": "DT_FLOAT"}, "value": {"tensor": {"dtype": "DT_FLOAT", "tensorShape": {"dim": [{"size": "1"}, {"size": "1"}, {"size": "80"}, {"size": "40"}]}}}}}, {"name": "PartitionedCall/transpose_582/perm", "op": "Const", "attr": {"value": {"tensor": {"dtype": "DT_INT32", "tensorShape": {"dim": [{"size": "4"}]}}}, "dtype": {"type": "DT_INT32"}}}, {"name": "PartitionedCall/onnx_tf_prefix_p2o.BatchNormalization.184/mul", "op": "Const", "attr": {"value": {"tensor": {"dtype": "DT_FLOAT", "tensorShape": {"dim": [{"size": "1"}, {"size": "40"}, {"size": "1"}, {"size": "1"}]}}}, "dtype": {"type": "DT_FLOAT"}}}, {"name": "PartitionedCall/onnx_tf_prefix_p2o.BatchNormalization.184/sub", "op": "Const", "attr": {"value": {"tensor": {"dtype": "DT_FLOAT", "tensorShape": {"dim": [{"size": "1"}, {"size": "40"}, {"size": "1"}, {"size": "1"}]}}}, "dtype": {"type": "DT_FLOAT"}}}, {"name": "PartitionedCall/strided_slice_70/stack", "op": "Const", "attr": {"value": {"tensor": {"dtype": "DT_INT32", "tensorShape": {"dim": [{"size": "1"}]}}}, "dtype": {"type": "DT_INT32"}}}, {"name": "PartitionedCall/strided_slice_70/stack_1", "op": "Const", "attr": {"dtype": {"type": "DT_INT32"}, "value": {"tensor": {"dtype": "DT_INT32", "tensorShape": {"dim": [{"size": "1"}]}}}}}, {"name": "PartitionedCall/strided_slice_70/stack_2", "op": "Const", "attr": {"value": {"tensor": {"dtype": "DT_INT32", "tensorShape": {"dim": [{"size": "1"}]}}}, "dtype": {"type": "DT_INT32"}}}, {"name": "PartitionedCall/transpose_584/perm", "op": "Const", "attr": {"value": {"tensor": {"dtype": "DT_INT32", "tensorShape": {"dim": [{"size": "4"}]}}}, "dtype": {"type": "DT_INT32"}}}, {"name": "PartitionedCall/transpose_588/perm", "op": "Const", "attr": {"dtype": {"type": "DT_INT32"}, "value": {"tensor": {"dtype": "DT_INT32", "tensorShape": {"dim": [{"size": "4"}]}}}}}, {"name": "PartitionedCall/strided_slice_71", "op": "Const", "attr": {"dtype": {"type": "DT_FLOAT"}, "value": {"tensor": {"dtype": "DT_FLOAT", "tensorShape": {"dim": [{"size": "2"}]}}}}}, {"name": "PartitionedCall/transpose_586/perm", "op": "Const", "attr": {"dtype": {"type": "DT_INT32"}, "value": {"tensor": {"dtype": "DT_INT32", "tensorShape": {"dim": [{"size": "4"}]}}}}}, {"name": "PartitionedCall/split_121", "op": "Const", "attr": {"dtype": {"type": "DT_FLOAT"}, "value": {"tensor": {"dtype": "DT_FLOAT", "tensorShape": {"dim": [{"size": "1"}, {"size": "1"}, {"size": "160"}, {"size": "40"}]}}}}}, {"name": "PartitionedCall/transpose_587/perm", "op": "Const", "attr": {"value": {"tensor": {"dtype": "DT_INT32", "tensorShape": {"dim": [{"size": "4"}]}}}, "dtype": {"type": "DT_INT32"}}}, {"name": "PartitionedCall/onnx_tf_prefix_p2o.BatchNormalization.185/mul", "op": "Const", "attr": {"value": {"tensor": {"dtype": "DT_FLOAT", "tensorShape": {"dim": [{"size": "1"}, {"size": "40"}, {"size": "1"}, {"size": "1"}]}}}, "dtype": {"type": "DT_FLOAT"}}}, {"name": "PartitionedCall/onnx_tf_prefix_p2o.BatchNormalization.185/sub", "op": "Const", "attr": {"value": {"tensor": {"dtype": "DT_FLOAT", "tensorShape": {"dim": [{"size": "1"}, {"size": "40"}, {"size": "1"}, {"size": "1"}]}}}, "dtype": {"type": "DT_FLOAT"}}}, {"name": "PartitionedCall/strided_slice_72/stack", "op": "Const", "attr": {"value": {"tensor": {"dtype": "DT_INT32", "tensorShape": {"dim": [{"size": "1"}]}}}, "dtype": {"type": "DT_INT32"}}}, {"name": "PartitionedCall/strided_slice_72/stack_1", "op": "Const", "attr": {"dtype": {"type": "DT_INT32"}, "value": {"tensor": {"dtype": "DT_INT32", "tensorShape": {"dim": [{"size": "1"}]}}}}}, {"name": "PartitionedCall/strided_slice_72/stack_2", "op": "Const", "attr": {"value": {"tensor": {"dtype": "DT_INT32", "tensorShape": {"dim": [{"size": "1"}]}}}, "dtype": {"type": "DT_INT32"}}}, {"name": "PartitionedCall/transpose_589/perm", "op": "Const", "attr": {"dtype": {"type": "DT_INT32"}, "value": {"tensor": {"dtype": "DT_INT32", "tensorShape": {"dim": [{"size": "4"}]}}}}}, {"name": "PartitionedCall/transpose_593/perm", "op": "Const", "attr": {"value": {"tensor": {"dtype": "DT_INT32", "tensorShape": {"dim": [{"size": "4"}]}}}, "dtype": {"type": "DT_INT32"}}}, {"name": "PartitionedCall/strided_slice_73", "op": "Const", "attr": {"dtype": {"type": "DT_FLOAT"}, "value": {"tensor": {"dtype": "DT_FLOAT", "tensorShape": {"dim": [{"size": "2"}]}}}}}, {"name": "PartitionedCall/transpose_591/perm", "op": "Const", "attr": {"value": {"tensor": {"dtype": "DT_INT32", "tensorShape": {"dim": [{"size": "4"}]}}}, "dtype": {"type": "DT_INT32"}}}, {"name": "PartitionedCall/split_122", "op": "Const", "attr": {"value": {"tensor": {"dtype": "DT_FLOAT", "tensorShape": {"dim": [{"size": "1"}, {"size": "1"}, {"size": "320"}, {"size": "40"}]}}}, "dtype": {"type": "DT_FLOAT"}}}, {"name": "PartitionedCall/transpose_592/perm", "op": "Const", "attr": {"dtype": {"type": "DT_INT32"}, "value": {"tensor": {"dtype": "DT_INT32", "tensorShape": {"dim": [{"size": "4"}]}}}}}, {"name": "PartitionedCall/onnx_tf_prefix_p2o.BatchNormalization.186/mul", "op": "Const", "attr": {"value": {"tensor": {"dtype": "DT_FLOAT", "tensorShape": {"dim": [{"size": "1"}, {"size": "40"}, {"size": "1"}, {"size": "1"}]}}}, "dtype": {"type": "DT_FLOAT"}}}, {"name": "PartitionedCall/onnx_tf_prefix_p2o.BatchNormalization.186/sub", "op": "Const", "attr": {"dtype": {"type": "DT_FLOAT"}, "value": {"tensor": {"dtype": "DT_FLOAT", "tensorShape": {"dim": [{"size": "1"}, {"size": "40"}, {"size": "1"}, {"size": "1"}]}}}}}, {"name": "PartitionedCall/strided_slice_74/stack", "op": "Const", "attr": {"value": {"tensor": {"dtype": "DT_INT32", "tensorShape": {"dim": [{"size": "1"}]}}}, "dtype": {"type": "DT_INT32"}}}, {"name": "PartitionedCall/strided_slice_74/stack_1", "op": "Const", "attr": {"dtype": {"type": "DT_INT32"}, "value": {"tensor": {"dtype": "DT_INT32", "tensorShape": {"dim": [{"size": "1"}]}}}}}, {"name": "PartitionedCall/strided_slice_74/stack_2", "op": "Const", "attr": {"dtype": {"type": "DT_INT32"}, "value": {"tensor": {"dtype": "DT_INT32", "tensorShape": {"dim": [{"size": "1"}]}}}}}, {"name": "PartitionedCall/transpose_594/perm", "op": "Const", "attr": {"value": {"tensor": {"dtype": "DT_INT32", "tensorShape": {"dim": [{"size": "4"}]}}}, "dtype": {"type": "DT_INT32"}}}, {"name": "PartitionedCall/Const_1635", "op": "Const", "attr": {"dtype": {"type": "DT_INT32"}, "value": {"tensor": {"dtype": "DT_INT32", "tensorShape": {"dim": [{"size": "4"}, {"size": "2"}]}}}}}, {"name": "PartitionedCall/transpose_635/perm", "op": "Const", "attr": {"dtype": {"type": "DT_INT32"}, "value": {"tensor": {"dtype": "DT_INT32", "tensorShape": {"dim": [{"size": "4"}]}}}}}, {"name": "PartitionedCall/Reshape_860", "op": "Const", "attr": {"dtype": {"type": "DT_FLOAT"}, "value": {"tensor": {"dtype": "DT_FLOAT", "tensorShape": {"dim": [{"size": "3"}, {"size": "3"}, {"size": "40"}, {"size": "1"}]}}}}}, {"name": "PartitionedCall/transpose_636/perm", "op": "Const", "attr": {"dtype": {"type": "DT_INT32"}, "value": {"tensor": {"dtype": "DT_INT32", "tensorShape": {"dim": [{"size": "4"}]}}}}}, {"name": "PartitionedCall/onnx_tf_prefix_p2o.BatchNormalization.198/mul", "op": "Const", "attr": {"value": {"tensor": {"dtype": "DT_FLOAT", "tensorShape": {"dim": [{"size": "1"}, {"size": "40"}, {"size": "1"}, {"size": "1"}]}}}, "dtype": {"type": "DT_FLOAT"}}}, {"name": "PartitionedCall/onnx_tf_prefix_p2o.BatchNormalization.198/sub", "op": "Const", "attr": {"value": {"tensor": {"dtype": "DT_FLOAT", "tensorShape": {"dim": [{"size": "1"}, {"size": "40"}, {"size": "1"}, {"size": "1"}]}}}, "dtype": {"type": "DT_FLOAT"}}}, {"name": "PartitionedCall/transpose_638/perm", "op": "Const", "attr": {"value": {"tensor": {"dtype": "DT_INT32", "tensorShape": {"dim": [{"size": "4"}]}}}, "dtype": {"type": "DT_INT32"}}}, {"name": "PartitionedCall/split_130", "op": "Const", "attr": {"value": {"tensor": {"dtype": "DT_FLOAT", "tensorShape": {"dim": [{"size": "1"}, {"size": "1"}, {"size": "40"}, {"size": "40"}]}}}, "dtype": {"type": "DT_FLOAT"}}}, {"name": "PartitionedCall/transpose_639/perm", "op": "Const", "attr": {"value": {"tensor": {"dtype": "DT_INT32", "tensorShape": {"dim": [{"size": "4"}]}}}, "dtype": {"type": "DT_INT32"}}}, {"name": "PartitionedCall/onnx_tf_prefix_p2o.BatchNormalization.199/mul", "op": "Const", "attr": {"value": {"tensor": {"dtype": "DT_FLOAT", "tensorShape": {"dim": [{"size": "1"}, {"size": "40"}, {"size": "1"}, {"size": "1"}]}}}, "dtype": {"type": "DT_FLOAT"}}}, {"name": "PartitionedCall/onnx_tf_prefix_p2o.BatchNormalization.199/sub", "op": "Const", "attr": {"value": {"tensor": {"dtype": "DT_FLOAT", "tensorShape": {"dim": [{"size": "1"}, {"size": "40"}, {"size": "1"}, {"size": "1"}]}}}, "dtype": {"type": "DT_FLOAT"}}}, {"name": "PartitionedCall/Const_1636", "op": "Const", "attr": {"value": {"tensor": {"dtype": "DT_INT32", "tensorShape": {"dim": [{"size": "4"}, {"size": "2"}]}}}, "dtype": {"type": "DT_INT32"}}}, {"name": "PartitionedCall/transpose_641/perm", "op": "Const", "attr": {"value": {"tensor": {"dtype": "DT_INT32", "tensorShape": {"dim": [{"size": "4"}]}}}, "dtype": {"type": "DT_INT32"}}}, {"name": "PartitionedCall/Reshape_869", "op": "Const", "attr": {"dtype": {"type": "DT_FLOAT"}, "value": {"tensor": {"dtype": "DT_FLOAT", "tensorShape": {"dim": [{"size": "3"}, {"size": "3"}, {"size": "40"}, {"size": "1"}]}}}}}, {"name": "PartitionedCall/transpose_642/perm", "op": "Const", "attr": {"dtype": {"type": "DT_INT32"}, "value": {"tensor": {"dtype": "DT_INT32", "tensorShape": {"dim": [{"size": "4"}]}}}}}, {"name": "PartitionedCall/onnx_tf_prefix_p2o.BatchNormalization.200/mul", "op": "Const", "attr": {"dtype": {"type": "DT_FLOAT"}, "value": {"tensor": {"dtype": "DT_FLOAT", "tensorShape": {"dim": [{"size": "1"}, {"size": "40"}, {"size": "1"}, {"size": "1"}]}}}}}, {"name": "PartitionedCall/onnx_tf_prefix_p2o.BatchNormalization.200/sub", "op": "Const", "attr": {"value": {"tensor": {"dtype": "DT_FLOAT", "tensorShape": {"dim": [{"size": "1"}, {"size": "40"}, {"size": "1"}, {"size": "1"}]}}}, "dtype": {"type": "DT_FLOAT"}}}, {"name": "PartitionedCall/transpose_644/perm", "op": "Const", "attr": {"value": {"tensor": {"dtype": "DT_INT32", "tensorShape": {"dim": [{"size": "4"}]}}}, "dtype": {"type": "DT_INT32"}}}, {"name": "PartitionedCall/split_131", "op": "Const", "attr": {"dtype": {"type": "DT_FLOAT"}, "value": {"tensor": {"dtype": "DT_FLOAT", "tensorShape": {"dim": [{"size": "1"}, {"size": "1"}, {"size": "40"}, {"size": "40"}]}}}}}, {"name": "PartitionedCall/transpose_645/perm", "op": "Const", "attr": {"dtype": {"type": "DT_INT32"}, "value": {"tensor": {"dtype": "DT_INT32", "tensorShape": {"dim": [{"size": "4"}]}}}}}, {"name": "PartitionedCall/onnx_tf_prefix_p2o.BatchNormalization.201/mul", "op": "Const", "attr": {"value": {"tensor": {"dtype": "DT_FLOAT", "tensorShape": {"dim": [{"size": "1"}, {"size": "40"}, {"size": "1"}, {"size": "1"}]}}}, "dtype": {"type": "DT_FLOAT"}}}, {"name": "PartitionedCall/onnx_tf_prefix_p2o.BatchNormalization.201/sub", "op": "Const", "attr": {"dtype": {"type": "DT_FLOAT"}, "value": {"tensor": {"dtype": "DT_FLOAT", "tensorShape": {"dim": [{"size": "1"}, {"size": "40"}, {"size": "1"}, {"size": "1"}]}}}}}, {"name": "PartitionedCall/Const_1637", "op": "Const", "attr": {"value": {"tensor": {"dtype": "DT_INT32", "tensorShape": {"dim": [{"size": "4"}, {"size": "2"}]}}}, "dtype": {"type": "DT_INT32"}}}, {"name": "PartitionedCall/transpose_647/perm", "op": "Const", "attr": {"value": {"tensor": {"dtype": "DT_INT32", "tensorShape": {"dim": [{"size": "4"}]}}}, "dtype": {"type": "DT_INT32"}}}, {"name": "PartitionedCall/Reshape_878", "op": "Const", "attr": {"dtype": {"type": "DT_FLOAT"}, "value": {"tensor": {"dtype": "DT_FLOAT", "tensorShape": {"dim": [{"size": "3"}, {"size": "3"}, {"size": "40"}, {"size": "1"}]}}}}}, {"name": "PartitionedCall/transpose_648/perm", "op": "Const", "attr": {"value": {"tensor": {"dtype": "DT_INT32", "tensorShape": {"dim": [{"size": "4"}]}}}, "dtype": {"type": "DT_INT32"}}}, {"name": "PartitionedCall/onnx_tf_prefix_p2o.BatchNormalization.202/mul", "op": "Const", "attr": {"value": {"tensor": {"dtype": "DT_FLOAT", "tensorShape": {"dim": [{"size": "1"}, {"size": "40"}, {"size": "1"}, {"size": "1"}]}}}, "dtype": {"type": "DT_FLOAT"}}}, {"name": "PartitionedCall/onnx_tf_prefix_p2o.BatchNormalization.202/sub", "op": "Const", "attr": {"dtype": {"type": "DT_FLOAT"}, "value": {"tensor": {"dtype": "DT_FLOAT", "tensorShape": {"dim": [{"size": "1"}, {"size": "40"}, {"size": "1"}, {"size": "1"}]}}}}}, {"name": "PartitionedCall/transpose_650/perm", "op": "Const", "attr": {"value": {"tensor": {"dtype": "DT_INT32", "tensorShape": {"dim": [{"size": "4"}]}}}, "dtype": {"type": "DT_INT32"}}}, {"name": "PartitionedCall/split_132", "op": "Const", "attr": {"value": {"tensor": {"dtype": "DT_FLOAT", "tensorShape": {"dim": [{"size": "1"}, {"size": "1"}, {"size": "40"}, {"size": "320"}]}}}, "dtype": {"type": "DT_FLOAT"}}}, {"name": "PartitionedCall/transpose_651/perm", "op": "Const", "attr": {"dtype": {"type": "DT_INT32"}, "value": {"tensor": {"dtype": "DT_INT32", "tensorShape": {"dim": [{"size": "4"}]}}}}}, {"name": "PartitionedCall/onnx_tf_prefix_p2o.BatchNormalization.203/mul", "op": "Const", "attr": {"value": {"tensor": {"dtype": "DT_FLOAT", "tensorShape": {"dim": [{"size": "1"}, {"size": "320"}, {"size": "1"}, {"size": "1"}]}}}, "dtype": {"type": "DT_FLOAT"}}}, {"name": "PartitionedCall/Const_1591", "op": "Const", "attr": {"dtype": {"type": "DT_INT64"}, "value": {"tensor": {"dtype": "DT_INT64", "tensorShape": {"dim": [{"size": "4"}]}}}}}, {"name": "PartitionedCall/Where_73", "op": "Const", "attr": {"value": {"tensor": {"dtype": "DT_INT64", "tensorShape": {"dim": [{}, {"size": "1"}]}}}, "dtype": {"type": "DT_INT64"}}}, {"name": "PartitionedCall/Cast_138", "op": "Const", "attr": {"dtype": {"type": "DT_INT64"}, "value": {"tensor": {"dtype": "DT_INT64", "tensorShape": {"dim": [{"size": "1"}]}}}}}, {"name": "PartitionedCall/Const_1589", "op": "Const", "attr": {"value": {"tensor": {"dtype": "DT_INT64", "tensorShape": {"dim": [{"size": "5"}]}}}, "dtype": {"type": "DT_INT64"}}}, {"name": "PartitionedCall/Where_72", "op": "Const", "attr": {"value": {"tensor": {"dtype": "DT_INT64", "tensorShape": {"dim": [{}, {"size": "1"}]}}}, "dtype": {"type": "DT_INT64"}}}, {"name": "PartitionedCall/Cast_137", "op": "Const", "attr": {"value": {"tensor": {"dtype": "DT_INT64", "tensorShape": {"dim": [{"size": "1"}]}}}, "dtype": {"type": "DT_INT64"}}}, {"name": "PartitionedCall/Const_1586", "op": "Const", "attr": {"value": {"tensor": {"dtype": "DT_INT64", "tensorShape": {"dim": [{"size": "4"}]}}}, "dtype": {"type": "DT_INT64"}}}, {"name": "PartitionedCall/Where_71", "op": "Const", "attr": {"value": {"tensor": {"dtype": "DT_INT64", "tensorShape": {"dim": [{}, {"size": "1"}]}}}, "dtype": {"type": "DT_INT64"}}}, {"name": "PartitionedCall/Cast_135", "op": "Const", "attr": {"dtype": {"type": "DT_INT64"}, "value": {"tensor": {"dtype": "DT_INT64", "tensorShape": {"dim": [{"size": "1"}]}}}}}, {"name": "PartitionedCall/Const_1584", "op": "Const", "attr": {"value": {"tensor": {"dtype": "DT_INT64", "tensorShape": {"dim": [{"size": "5"}]}}}, "dtype": {"type": "DT_INT64"}}}, {"name": "PartitionedCall/Where_70", "op": "Const", "attr": {"value": {"tensor": {"dtype": "DT_INT64", "tensorShape": {"dim": [{}, {"size": "1"}]}}}, "dtype": {"type": "DT_INT64"}}}, {"name": "PartitionedCall/Cast_134", "op": "Const", "attr": {"dtype": {"type": "DT_INT64"}, "value": {"tensor": {"dtype": "DT_INT64", "tensorShape": {"dim": [{"size": "1"}]}}}}}, {"name": "PartitionedCall/ArithmeticOptimizer/AddOpsRewrite_Leaf_0_onnx_tf_prefix_p2o.Add.76", "op": "Const", "attr": {"dtype": {"type": "DT_FLOAT"}, "value": {"tensor": {"dtype": "DT_FLOAT", "tensorShape": {"dim": [{"size": "1"}, {"size": "80"}, {"size": "1"}, {"size": "1"}]}}}}}, {"name": "PartitionedCall/Const_1565", "op": "Const", "attr": {"value": {"tensor": {"dtype": "DT_INT32", "tensorShape": {"dim": [{"size": "4"}, {"size": "2"}]}}}, "dtype": {"type": "DT_INT32"}}}, {"name": "PartitionedCall/transpose_474/perm", "op": "Const", "attr": {"dtype": {"type": "DT_INT32"}, "value": {"tensor": {"dtype": "DT_INT32", "tensorShape": {"dim": [{"size": "4"}]}}}}}, {"name": "PartitionedCall/Reshape_647", "op": "Const", "attr": {"value": {"tensor": {"dtype": "DT_FLOAT", "tensorShape": {"dim": [{"size": "3"}, {"size": "3"}, {"size": "40"}, {"size": "1"}]}}}, "dtype": {"type": "DT_FLOAT"}}}, {"name": "PartitionedCall/transpose_475/perm", "op": "Const", "attr": {"value": {"tensor": {"dtype": "DT_INT32", "tensorShape": {"dim": [{"size": "4"}]}}}, "dtype": {"type": "DT_INT32"}}}, {"name": "PartitionedCall/onnx_tf_prefix_p2o.BatchNormalization.149/mul", "op": "Const", "attr": {"dtype": {"type": "DT_FLOAT"}, "value": {"tensor": {"dtype": "DT_FLOAT", "tensorShape": {"dim": [{"size": "1"}, {"size": "40"}, {"size": "1"}, {"size": "1"}]}}}}}, {"name": "PartitionedCall/onnx_tf_prefix_p2o.BatchNormalization.149/sub", "op": "Const", "attr": {"value": {"tensor": {"dtype": "DT_FLOAT", "tensorShape": {"dim": [{"size": "1"}, {"size": "40"}, {"size": "1"}, {"size": "1"}]}}}, "dtype": {"type": "DT_FLOAT"}}}, {"name": "PartitionedCall/transpose_477/perm", "op": "Const", "attr": {"dtype": {"type": "DT_INT32"}, "value": {"tensor": {"dtype": "DT_INT32", "tensorShape": {"dim": [{"size": "4"}]}}}}}, {"name": "PartitionedCall/split_98", "op": "Const", "attr": {"dtype": {"type": "DT_FLOAT"}, "value": {"tensor": {"dtype": "DT_FLOAT", "tensorShape": {"dim": [{"size": "1"}, {"size": "1"}, {"size": "40"}, {"size": "80"}]}}}}}, {"name": "PartitionedCall/transpose_478/perm", "op": "Const", "attr": {"dtype": {"type": "DT_INT32"}, "value": {"tensor": {"dtype": "DT_INT32", "tensorShape": {"dim": [{"size": "4"}]}}}}}, {"name": "PartitionedCall/onnx_tf_prefix_p2o.BatchNormalization.150/mul", "op": "Const", "attr": {"dtype": {"type": "DT_FLOAT"}, "value": {"tensor": {"dtype": "DT_FLOAT", "tensorShape": {"dim": [{"size": "1"}, {"size": "80"}, {"size": "1"}, {"size": "1"}]}}}}}, {"name": "PartitionedCall/transpose_482/perm", "op": "Const", "attr": {"dtype": {"type": "DT_INT32"}, "value": {"tensor": {"dtype": "DT_INT32", "tensorShape": {"dim": [{"size": "4"}]}}}}}, {"name": "PartitionedCall/strided_slice_59", "op": "Const", "attr": {"value": {"tensor": {"dtype": "DT_FLOAT", "tensorShape": {"dim": [{"size": "2"}]}}}, "dtype": {"type": "DT_FLOAT"}}}, {"name": "PartitionedCall/transpose_480/perm", "op": "Const", "attr": {"dtype": {"type": "DT_INT32"}, "value": {"tensor": {"dtype": "DT_INT32", "tensorShape": {"dim": [{"size": "4"}]}}}}}, {"name": "PartitionedCall/split_99", "op": "Const", "attr": {"value": {"tensor": {"dtype": "DT_FLOAT", "tensorShape": {"dim": [{"size": "1"}, {"size": "1"}, {"size": "160"}, {"size": "80"}]}}}, "dtype": {"type": "DT_FLOAT"}}}, {"name": "PartitionedCall/transpose_481/perm", "op": "Const", "attr": {"value": {"tensor": {"dtype": "DT_INT32", "tensorShape": {"dim": [{"size": "4"}]}}}, "dtype": {"type": "DT_INT32"}}}, {"name": "PartitionedCall/onnx_tf_prefix_p2o.BatchNormalization.151/mul", "op": "Const", "attr": {"dtype": {"type": "DT_FLOAT"}, "value": {"tensor": {"dtype": "DT_FLOAT", "tensorShape": {"dim": [{"size": "1"}, {"size": "80"}, {"size": "1"}, {"size": "1"}]}}}}}, {"name": "PartitionedCall/onnx_tf_prefix_p2o.BatchNormalization.151/sub", "op": "Const", "attr": {"dtype": {"type": "DT_FLOAT"}, "value": {"tensor": {"dtype": "DT_FLOAT", "tensorShape": {"dim": [{"size": "1"}, {"size": "80"}, {"size": "1"}, {"size": "1"}]}}}}}, {"name": "PartitionedCall/strided_slice_60/stack", "op": "Const", "attr": {"value": {"tensor": {"dtype": "DT_INT32", "tensorShape": {"dim": [{"size": "1"}]}}}, "dtype": {"type": "DT_INT32"}}}, {"name": "PartitionedCall/strided_slice_60/stack_1", "op": "Const", "attr": {"dtype": {"type": "DT_INT32"}, "value": {"tensor": {"dtype": "DT_INT32", "tensorShape": {"dim": [{"size": "1"}]}}}}}, {"name": "PartitionedCall/strided_slice_60/stack_2", "op": "Const", "attr": {"value": {"tensor": {"dtype": "DT_INT32", "tensorShape": {"dim": [{"size": "1"}]}}}, "dtype": {"type": "DT_INT32"}}}, {"name": "PartitionedCall/transpose_483/perm", "op": "Const", "attr": {"dtype": {"type": "DT_INT32"}, "value": {"tensor": {"dtype": "DT_INT32", "tensorShape": {"dim": [{"size": "4"}]}}}}}, {"name": "PartitionedCall/strided_slice_63/stack", "op": "Const", "attr": {"dtype": {"type": "DT_INT32"}, "value": {"tensor": {"dtype": "DT_INT32", "tensorShape": {"dim": [{"size": "1"}]}}}}}, {"name": "PartitionedCall/strided_slice_63/stack_1", "op": "Const", "attr": {"dtype": {"type": "DT_INT32"}, "value": {"tensor": {"dtype": "DT_INT32", "tensorShape": {"dim": [{"size": "1"}]}}}}}, {"name": "PartitionedCall/strided_slice_63/stack_2", "op": "Const", "attr": {"dtype": {"type": "DT_INT32"}, "value": {"tensor": {"dtype": "DT_INT32", "tensorShape": {"dim": [{"size": "1"}]}}}}}, {"name": "ConstantFolding/PartitionedCall/truediv_35_recip", "op": "Const", "attr": {"value": {"tensor": {"dtype": "DT_DOUBLE", "tensorShape": {}}}, "dtype": {"type": "DT_DOUBLE"}}}, {"name": "PartitionedCall/onnx_tf_prefix_p2o.Split.35/split_dim", "op": "Const", "attr": {"dtype": {"type": "DT_INT32"}, "value": {"tensor": {"dtype": "DT_INT32", "tensorShape": {}}}}}, {"name": "PartitionedCall/transpose_527/perm", "op": "Const", "attr": {"dtype": {"type": "DT_INT32"}, "value": {"tensor": {"dtype": "DT_INT32", "tensorShape": {"dim": [{"size": "4"}]}}}}}, {"name": "PartitionedCall/split_108", "op": "Const", "attr": {"dtype": {"type": "DT_FLOAT"}, "value": {"tensor": {"dtype": "DT_FLOAT", "tensorShape": {"dim": [{"size": "1"}, {"size": "1"}, {"size": "40"}, {"size": "40"}]}}}}}, {"name": "PartitionedCall/transpose_528/perm", "op": "Const", "attr": {"dtype": {"type": "DT_INT32"}, "value": {"tensor": {"dtype": "DT_INT32", "tensorShape": {"dim": [{"size": "4"}]}}}}}, {"name": "PartitionedCall/onnx_tf_prefix_p2o.BatchNormalization.166/mul", "op": "Const", "attr": {"dtype": {"type": "DT_FLOAT"}, "value": {"tensor": {"dtype": "DT_FLOAT", "tensorShape": {"dim": [{"size": "1"}, {"size": "40"}, {"size": "1"}, {"size": "1"}]}}}}}, {"name": "PartitionedCall/onnx_tf_prefix_p2o.BatchNormalization.166/sub", "op": "Const", "attr": {"dtype": {"type": "DT_FLOAT"}, "value": {"tensor": {"dtype": "DT_FLOAT", "tensorShape": {"dim": [{"size": "1"}, {"size": "40"}, {"size": "1"}, {"size": "1"}]}}}}}, {"name": "PartitionedCall/Const_1583", "op": "Const", "attr": {"dtype": {"type": "DT_INT32"}, "value": {"tensor": {"dtype": "DT_INT32", "tensorShape": {"dim": [{"size": "4"}, {"size": "2"}]}}}}}, {"name": "PartitionedCall/transpose_530/perm", "op": "Const", "attr": {"dtype": {"type": "DT_INT32"}, "value": {"tensor": {"dtype": "DT_INT32", "tensorShape": {"dim": [{"size": "4"}]}}}}}, {"name": "PartitionedCall/Reshape_726", "op": "Const", "attr": {"value": {"tensor": {"dtype": "DT_FLOAT", "tensorShape": {"dim": [{"size": "3"}, {"size": "3"}, {"size": "40"}, {"size": "1"}]}}}, "dtype": {"type": "DT_FLOAT"}}}, {"name": "PartitionedCall/transpose_531/perm", "op": "Const", "attr": {"dtype": {"type": "DT_INT32"}, "value": {"tensor": {"dtype": "DT_INT32", "tensorShape": {"dim": [{"size": "4"}]}}}}}, {"name": "PartitionedCall/onnx_tf_prefix_p2o.BatchNormalization.167/mul", "op": "Const", "attr": {"value": {"tensor": {"dtype": "DT_FLOAT", "tensorShape": {"dim": [{"size": "1"}, {"size": "40"}, {"size": "1"}, {"size": "1"}]}}}, "dtype": {"type": "DT_FLOAT"}}}, {"name": "PartitionedCall/onnx_tf_prefix_p2o.BatchNormalization.167/sub", "op": "Const", "attr": {"dtype": {"type": "DT_FLOAT"}, "value": {"tensor": {"dtype": "DT_FLOAT", "tensorShape": {"dim": [{"size": "1"}, {"size": "40"}, {"size": "1"}, {"size": "1"}]}}}}}, {"name": "PartitionedCall/transpose_533/perm", "op": "Const", "attr": {"value": {"tensor": {"dtype": "DT_INT32", "tensorShape": {"dim": [{"size": "4"}]}}}, "dtype": {"type": "DT_INT32"}}}, {"name": "PartitionedCall/split_109", "op": "Const", "attr": {"dtype": {"type": "DT_FLOAT"}, "value": {"tensor": {"dtype": "DT_FLOAT", "tensorShape": {"dim": [{"size": "1"}, {"size": "1"}, {"size": "40"}, {"size": "40"}]}}}}}, {"name": "PartitionedCall/transpose_534/perm", "op": "Const", "attr": {"dtype": {"type": "DT_INT32"}, "value": {"tensor": {"dtype": "DT_INT32", "tensorShape": {"dim": [{"size": "4"}]}}}}}, {"name": "PartitionedCall/onnx_tf_prefix_p2o.BatchNormalization.168/mul", "op": "Const", "attr": {"value": {"tensor": {"dtype": "DT_FLOAT", "tensorShape": {"dim": [{"size": "1"}, {"size": "40"}, {"size": "1"}, {"size": "1"}]}}}, "dtype": {"type": "DT_FLOAT"}}}, {"name": "PartitionedCall/onnx_tf_prefix_p2o.BatchNormalization.168/sub", "op": "Const", "attr": {"dtype": {"type": "DT_FLOAT"}, "value": {"tensor": {"dtype": "DT_FLOAT", "tensorShape": {"dim": [{"size": "1"}, {"size": "40"}, {"size": "1"}, {"size": "1"}]}}}}}, {"name": "PartitionedCall/onnx_tf_prefix_p2o.Concat.70/axis", "op": "Const", "attr": {"value": {"tensor": {"dtype": "DT_INT32", "tensorShape": {}}}, "dtype": {"type": "DT_INT32"}}}, {"name": "PartitionedCall/Squeeze_70", "op": "Const", "attr": {"value": {"tensor": {"dtype": "DT_INT64", "tensorShape": {"dim": [{}]}}}, "dtype": {"type": "DT_INT64"}}}, {"name": "PartitionedCall/GatherV2_70/axis", "op": "Const", "attr": {"dtype": {"type": "DT_INT32"}, "value": {"tensor": {"dtype": "DT_INT32", "tensorShape": {}}}}}, {"name": "PartitionedCall/zeros_70", "op": "Const", "attr": {"value": {"tensor": {"dtype": "DT_INT64", "tensorShape": {}}}, "dtype": {"type": "DT_INT64"}}}, {"name": "PartitionedCall/onnx_tf_prefix_p2o.Transpose.35/perm", "op": "Const", "attr": {"dtype": {"type": "DT_INT32"}, "value": {"tensor": {"dtype": "DT_INT32", "tensorShape": {"dim": [{"size": "5"}]}}}}}, {"name": "PartitionedCall/Squeeze_71", "op": "Const", "attr": {"dtype": {"type": "DT_INT64"}, "value": {"tensor": {"dtype": "DT_INT64", "tensorShape": {"dim": [{}]}}}}}, {"name": "PartitionedCall/GatherV2_71/axis", "op": "Const", "attr": {"dtype": {"type": "DT_INT32"}, "value": {"tensor": {"dtype": "DT_INT32", "tensorShape": {}}}}}, {"name": "PartitionedCall/zeros_71", "op": "Const", "attr": {"dtype": {"type": "DT_INT64"}, "value": {"tensor": {"dtype": "DT_INT64", "tensorShape": {}}}}}, {"name": "PartitionedCall/strided_slice_64/stack", "op": "Const", "attr": {"value": {"tensor": {"dtype": "DT_INT32", "tensorShape": {"dim": [{"size": "1"}]}}}, "dtype": {"type": "DT_INT32"}}}, {"name": "PartitionedCall/strided_slice_64/stack_1", "op": "Const", "attr": {"dtype": {"type": "DT_INT32"}, "value": {"tensor": {"dtype": "DT_INT32", "tensorShape": {"dim": [{"size": "1"}]}}}}}, {"name": "PartitionedCall/strided_slice_64/stack_2", "op": "Const", "attr": {"dtype": {"type": "DT_INT32"}, "value": {"tensor": {"dtype": "DT_INT32", "tensorShape": {"dim": [{"size": "1"}]}}}}}, {"name": "ConstantFolding/PartitionedCall/truediv_36_recip", "op": "Const", "attr": {"dtype": {"type": "DT_DOUBLE"}, "value": {"tensor": {"dtype": "DT_DOUBLE", "tensorShape": {}}}}}, {"name": "PartitionedCall/onnx_tf_prefix_p2o.Split.36/split_dim", "op": "Const", "attr": {"dtype": {"type": "DT_INT32"}, "value": {"tensor": {"dtype": "DT_INT32", "tensorShape": {}}}}}, {"name": "PartitionedCall/transpose_536/perm", "op": "Const", "attr": {"dtype": {"type": "DT_INT32"}, "value": {"tensor": {"dtype": "DT_INT32", "tensorShape": {"dim": [{"size": "4"}]}}}}}, {"name": "PartitionedCall/split_110", "op": "Const", "attr": {"dtype": {"type": "DT_FLOAT"}, "value": {"tensor": {"dtype": "DT_FLOAT", "tensorShape": {"dim": [{"size": "1"}, {"size": "1"}, {"size": "40"}, {"size": "40"}]}}}}}, {"name": "PartitionedCall/transpose_537/perm", "op": "Const", "attr": {"dtype": {"type": "DT_INT32"}, "value": {"tensor": {"dtype": "DT_INT32", "tensorShape": {"dim": [{"size": "4"}]}}}}}, {"name": "PartitionedCall/onnx_tf_prefix_p2o.BatchNormalization.169/mul", "op": "Const", "attr": {"dtype": {"type": "DT_FLOAT"}, "value": {"tensor": {"dtype": "DT_FLOAT", "tensorShape": {"dim": [{"size": "1"}, {"size": "40"}, {"size": "1"}, {"size": "1"}]}}}}}, {"name": "PartitionedCall/onnx_tf_prefix_p2o.BatchNormalization.169/sub", "op": "Const", "attr": {"value": {"tensor": {"dtype": "DT_FLOAT", "tensorShape": {"dim": [{"size": "1"}, {"size": "40"}, {"size": "1"}, {"size": "1"}]}}}, "dtype": {"type": "DT_FLOAT"}}}, {"name": "PartitionedCall/Const_1588", "op": "Const", "attr": {"dtype": {"type": "DT_INT32"}, "value": {"tensor": {"dtype": "DT_INT32", "tensorShape": {"dim": [{"size": "4"}, {"size": "2"}]}}}}}, {"name": "PartitionedCall/transpose_539/perm", "op": "Const", "attr": {"value": {"tensor": {"dtype": "DT_INT32", "tensorShape": {"dim": [{"size": "4"}]}}}, "dtype": {"type": "DT_INT32"}}}, {"name": "PartitionedCall/Reshape_739", "op": "Const", "attr": {"dtype": {"type": "DT_FLOAT"}, "value": {"tensor": {"dtype": "DT_FLOAT", "tensorShape": {"dim": [{"size": "3"}, {"size": "3"}, {"size": "40"}, {"size": "1"}]}}}}}, {"name": "PartitionedCall/transpose_540/perm", "op": "Const", "attr": {"dtype": {"type": "DT_INT32"}, "value": {"tensor": {"dtype": "DT_INT32", "tensorShape": {"dim": [{"size": "4"}]}}}}}, {"name": "PartitionedCall/onnx_tf_prefix_p2o.BatchNormalization.170/mul", "op": "Const", "attr": {"value": {"tensor": {"dtype": "DT_FLOAT", "tensorShape": {"dim": [{"size": "1"}, {"size": "40"}, {"size": "1"}, {"size": "1"}]}}}, "dtype": {"type": "DT_FLOAT"}}}, {"name": "PartitionedCall/onnx_tf_prefix_p2o.BatchNormalization.170/sub", "op": "Const", "attr": {"value": {"tensor": {"dtype": "DT_FLOAT", "tensorShape": {"dim": [{"size": "1"}, {"size": "40"}, {"size": "1"}, {"size": "1"}]}}}, "dtype": {"type": "DT_FLOAT"}}}, {"name": "PartitionedCall/transpose_542/perm", "op": "Const", "attr": {"dtype": {"type": "DT_INT32"}, "value": {"tensor": {"dtype": "DT_INT32", "tensorShape": {"dim": [{"size": "4"}]}}}}}, {"name": "PartitionedCall/split_111", "op": "Const", "attr": {"dtype": {"type": "DT_FLOAT"}, "value": {"tensor": {"dtype": "DT_FLOAT", "tensorShape": {"dim": [{"size": "1"}, {"size": "1"}, {"size": "40"}, {"size": "40"}]}}}}}, {"name": "PartitionedCall/transpose_543/perm", "op": "Const", "attr": {"dtype": {"type": "DT_INT32"}, "value": {"tensor": {"dtype": "DT_INT32", "tensorShape": {"dim": [{"size": "4"}]}}}}}, {"name": "PartitionedCall/onnx_tf_prefix_p2o.BatchNormalization.171/mul", "op": "Const", "attr": {"value": {"tensor": {"dtype": "DT_FLOAT", "tensorShape": {"dim": [{"size": "1"}, {"size": "40"}, {"size": "1"}, {"size": "1"}]}}}, "dtype": {"type": "DT_FLOAT"}}}, {"name": "PartitionedCall/onnx_tf_prefix_p2o.BatchNormalization.171/sub", "op": "Const", "attr": {"dtype": {"type": "DT_FLOAT"}, "value": {"tensor": {"dtype": "DT_FLOAT", "tensorShape": {"dim": [{"size": "1"}, {"size": "40"}, {"size": "1"}, {"size": "1"}]}}}}}, {"name": "PartitionedCall/onnx_tf_prefix_p2o.Concat.72/axis", "op": "Const", "attr": {"dtype": {"type": "DT_INT32"}, "value": {"tensor": {"dtype": "DT_INT32", "tensorShape": {}}}}}, {"name": "PartitionedCall/Squeeze_72", "op": "Const", "attr": {"value": {"tensor": {"dtype": "DT_INT64", "tensorShape": {"dim": [{}]}}}, "dtype": {"type": "DT_INT64"}}}, {"name": "PartitionedCall/GatherV2_72/axis", "op": "Const", "attr": {"value": {"tensor": {"dtype": "DT_INT32", "tensorShape": {}}}, "dtype": {"type": "DT_INT32"}}}, {"name": "PartitionedCall/zeros_72", "op": "Const", "attr": {"dtype": {"type": "DT_INT64"}, "value": {"tensor": {"dtype": "DT_INT64", "tensorShape": {}}}}}, {"name": "PartitionedCall/onnx_tf_prefix_p2o.Transpose.36/perm", "op": "Const", "attr": {"value": {"tensor": {"dtype": "DT_INT32", "tensorShape": {"dim": [{"size": "5"}]}}}, "dtype": {"type": "DT_INT32"}}}, {"name": "PartitionedCall/Squeeze_73", "op": "Const", "attr": {"dtype": {"type": "DT_INT64"}, "value": {"tensor": {"dtype": "DT_INT64", "tensorShape": {"dim": [{}]}}}}}, {"name": "PartitionedCall/GatherV2_73/axis", "op": "Const", "attr": {"value": {"tensor": {"dtype": "DT_INT32", "tensorShape": {}}}, "dtype": {"type": "DT_INT32"}}}, {"name": "PartitionedCall/zeros_73", "op": "Const", "attr": {"value": {"tensor": {"dtype": "DT_INT64", "tensorShape": {}}}, "dtype": {"type": "DT_INT64"}}}, {"name": "PartitionedCall/Const_1638", "op": "Const", "attr": {"dtype": {"type": "DT_INT32"}, "value": {"tensor": {"dtype": "DT_INT32", "tensorShape": {"dim": [{"size": "4"}, {"size": "2"}]}}}}}, {"name": "PartitionedCall/transpose_653/perm", "op": "Const", "attr": {"value": {"tensor": {"dtype": "DT_INT32", "tensorShape": {"dim": [{"size": "4"}]}}}, "dtype": {"type": "DT_INT32"}}}, {"name": "PartitionedCall/Reshape_887", "op": "Const", "attr": {"dtype": {"type": "DT_FLOAT"}, "value": {"tensor": {"dtype": "DT_FLOAT", "tensorShape": {"dim": [{"size": "3"}, {"size": "3"}, {"size": "80"}, {"size": "1"}]}}}}}, {"name": "PartitionedCall/transpose_654/perm", "op": "Const", "attr": {"dtype": {"type": "DT_INT32"}, "value": {"tensor": {"dtype": "DT_INT32", "tensorShape": {"dim": [{"size": "4"}]}}}}}, {"name": "PartitionedCall/onnx_tf_prefix_p2o.BatchNormalization.204/mul", "op": "Const", "attr": {"value": {"tensor": {"dtype": "DT_FLOAT", "tensorShape": {"dim": [{"size": "1"}, {"size": "80"}, {"size": "1"}, {"size": "1"}]}}}, "dtype": {"type": "DT_FLOAT"}}}, {"name": "PartitionedCall/onnx_tf_prefix_p2o.BatchNormalization.204/sub", "op": "Const", "attr": {"dtype": {"type": "DT_FLOAT"}, "value": {"tensor": {"dtype": "DT_FLOAT", "tensorShape": {"dim": [{"size": "1"}, {"size": "80"}, {"size": "1"}, {"size": "1"}]}}}}}, {"name": "PartitionedCall/transpose_656/perm", "op": "Const", "attr": {"dtype": {"type": "DT_INT32"}, "value": {"tensor": {"dtype": "DT_INT32", "tensorShape": {"dim": [{"size": "4"}]}…
ame": "ConstantFolding/PartitionedCall/truediv_7_recip", "shape": [], "dtype": "float32"}, {"name": "PartitionedCall/onnx_tf_prefix_p2o.Split.7/split_dim", "shape": [], "dtype": "int32"}, {"name": "PartitionedCall/transpose_96/perm", "shape": [4], "dtype": "int32"}, {"name": "PartitionedCall/split_20", "shape": [1, 1, 40, 40], "dtype": "float32"}, {"name": "PartitionedCall/transpose_97/perm", "shape": [4], "dtype": "int32"}, {"name": "PartitionedCall/onnx_tf_prefix_p2o.BatchNormalization.31/mul", "shape": [1, 40, 1, 1], "dtype": "float32"}, {"name": "PartitionedCall/onnx_tf_prefix_p2o.BatchNormalization.31/sub", "shape": [1, 40, 1, 1], "dtype": "float32"}, {"name": "PartitionedCall/Const_1385", "shape": [4, 2], "dtype": "int32"}, {"name": "PartitionedCall/transpose_99/perm", "shape": [4], "dtype": "int32"}, {"name": "PartitionedCall/Reshape_139", "shape": [3, 3, 40, 1], "dtype": "float32"}, {"name": "PartitionedCall/transpose_100/perm", "shape": [4], "dtype": "int32"}, {"name": "PartitionedCall/onnx_tf_prefix_p2o.BatchNormalization.32/mul", "shape": [1, 40, 1, 1], "dtype": "float32"}, {"name": "PartitionedCall/onnx_tf_prefix_p2o.BatchNormalization.32/sub", "shape": [1, 40, 1, 1], "dtype": "float32"}, {"name": "PartitionedCall/transpose_102/perm", "shape": [4], "dtype": "int32"}, {"name": "PartitionedCall/split_21", "shape": [1, 1, 40, 40], "dtype": "float32"}, {"name": "PartitionedCall/transpose_103/perm", "shape": [4], "dtype": "int32"}, {"name": "PartitionedCall/onnx_tf_prefix_p2o.BatchNormalization.33/mul", "shape": [1, 40, 1, 1], "dtype": "float32"}, {"name": "PartitionedCall/onnx_tf_prefix_p2o.BatchNormalization.33/sub", "shape": [1, 40, 1, 1], "dtype": "float32"}, {"name": "PartitionedCall/onnx_tf_prefix_p2o.Concat.14/axis", "shape": [], "dtype": "int32"}, {"name": "PartitionedCall/Squeeze_14", "shape": [0], "dtype": "int32"}, {"name": "PartitionedCall/GatherV2_14/axis", "shape": [], "dtype": "int32"}, {"name": "PartitionedCall/zeros_14", "shape": [], "dtype": "int32"}, {"name": "PartitionedCall/onnx_tf_prefix_p2o.Transpose.7/perm", "shape": [5], "dtype": "int32"}, {"name": "PartitionedCall/Squeeze_15", "shape": [0], "dtype": "int32"}, {"name": "PartitionedCall/GatherV2_15/axis", "shape": [], "dtype": "int32"}, {"name": "PartitionedCall/zeros_15", "shape": [], "dtype": "int32"}, {"name": "PartitionedCall/strided_slice_10/stack", "shape": [1], "dtype": "int32"}, {"name": "PartitionedCall/strided_slice_10/stack_1", "shape": [1], "dtype": "int32"}, {"name": "PartitionedCall/strided_slice_10/stack_2", "shape": [1], "dtype": "int32"}, {"name": "ConstantFolding/PartitionedCall/truediv_8_recip", "shape": [], "dtype": "float32"}, {"name": "PartitionedCall/onnx_tf_prefix_p2o.Split.8/split_dim", "shape": [], "dtype": "int32"}, {"name": "PartitionedCall/transpose_105/perm", "shape": [4], "dtype": "int32"}, {"name": "PartitionedCall/split_22", "shape": [1, 1, 40, 40], "dtype": "float32"}, {"name": "PartitionedCall/transpose_106/perm", "shape": [4], "dtype": "int32"}, {"name": "PartitionedCall/onnx_tf_prefix_p2o.BatchNormalization.34/mul", "shape": [1, 40, 1, 1], "dtype": "float32"}, {"name": "PartitionedCall/onnx_tf_prefix_p2o.BatchNormalization.34/sub", "shape": [1, 40, 1, 1], "dtype": "float32"}, {"name": "PartitionedCall/Const_1390", "shape": [4, 2], "dtype": "int32"}, {"name": "PartitionedCall/transpose_108/perm", "shape": [4], "dtype": "int32"}, {"name": "PartitionedCall/Reshape_152", "shape": [3, 3, 40, 1], "dtype": "float32"}, {"name": "PartitionedCall/transpose_109/perm", "shape": [4], "dtype": "int32"}, {"name": "PartitionedCall/onnx_tf_prefix_p2o.BatchNormalization.35/mul", "shape": [1, 40, 1, 1], "dtype": "float32"}, {"name": "PartitionedCall/onnx_tf_prefix_p2o.BatchNormalization.35/sub", "shape": [1, 40, 1, 1], "dtype": "float32"}, {"name": "PartitionedCall/transpose_111/perm", "shape": [4], "dtype": "int32"}, {"name": "PartitionedCall/split_23", "shape": [1, 1, 40, 40], "dtype": "float32"}, {"name": "PartitionedCall/transpose_112/perm", "shape": [4], "dtype": "int32"}, {"name": "PartitionedCall/onnx_tf_prefix_p2o.BatchNormalization.36/mul", "shape": [1, 40, 1, 1], "dtype": "float32"}, {"name": "PartitionedCall/onnx_tf_prefix_p2o.BatchNormalization.36/sub", "shape": [1, 40, 1, 1], "dtype": "float32"}, {"name": "PartitionedCall/onnx_tf_prefix_p2o.Concat.16/axis", "shape": [], "dtype": "int32"}, {"name": "PartitionedCall/Squeeze_16", "shape": [0], "dtype": "int32"}, {"name": "PartitionedCall/GatherV2_16/axis", "shape": [], "dtype": "int32"}, {"name": "PartitionedCall/zeros_16", "shape": [], "dtype": "int32"}, {"name": "PartitionedCall/onnx_tf_prefix_p2o.Transpose.8/perm", "shape": [5], "dtype": "int32"}, {"name": "PartitionedCall/Squeeze_17", "shape": [0], "dtype": "int32"}, {"name": "PartitionedCall/GatherV2_17/axis", "shape": [], "dtype": "int32"}, {"name": "PartitionedCall/zeros_17", "shape": [], "dtype": "int32"}, {"name": "PartitionedCall/Const_1399", "shape": [4, 2], "dtype": "int32"}, {"name": "PartitionedCall/transpose_125/perm", "shape": [4], "dtype": "int32"}, {"name": "PartitionedCall/Reshape_174", "shape": [3, 3, 80, 1], "dtype": "float32"}, {"name": "PartitionedCall/transpose_126/perm", "shape": [4], "dtype": "int32"}, {"name": "PartitionedCall/onnx_tf_prefix_p2o.BatchNormalization.40/mul", "shape": [1, 80, 1, 1], "dtype": "float32"}, {"name": "PartitionedCall/onnx_tf_prefix_p2o.BatchNormalization.40/sub", "shape": [1, 80, 1, 1], "dtype": "float32"}, {"name": "PartitionedCall/transpose_128/perm", "shape": [4], "dtype": "int32"}, {"name": "PartitionedCall/split_26", "shape": [1, 1, 80, 160], "dtype": "float32"}, {"name": "PartitionedCall/transpose_129/perm", "shape": [4], "dtype": "int32"}, {"name": "PartitionedCall/onnx_tf_prefix_p2o.BatchNormalization.41/mul", "shape": [1, 160, 1, 1], "dtype": "float32"}, {"name": "PartitionedCall/onnx_tf_prefix_p2o.BatchNormalization.41/sub", "shape": [1, 160, 1, 1], "dtype": "float32"}, {"name": "PartitionedCall/strided_slice_17/stack", "shape": [1], "dtype": "int32"}, {"name": "PartitionedCall/strided_slice_17/stack_1", "shape": [1], "dtype": "int32"}, {"name": "PartitionedCall/strided_slice_17/stack_2", "shape": [1], "dtype": "int32"}, {"name": "ConstantFolding/PartitionedCall/truediv_13_recip", "shape": [], "dtype": "float32"}, {"name": "PartitionedCall/onnx_tf_prefix_p2o.Split.13/split_dim", "shape": [], "dtype": "int32"}, {"name": "PartitionedCall/transpose_167/perm", "shape": [4], "dtype": "int32"}, {"name": "PartitionedCall/split_35", "shape": [1, 1, 80, 80], "dtype": "float32"}, {"name": "PartitionedCall/transpose_168/perm", "shape": [4], "dtype": "int32"}, {"name": "PartitionedCall/onnx_tf_prefix_p2o.BatchNormalization.54/mul", "shape": [1, 80, 1, 1], "dtype": "float32"}, {"name": "PartitionedCall/onnx_tf_prefix_p2o.BatchNormalization.54/sub", "shape": [1, 80, 1, 1], "dtype": "float32"}, {"name": "PartitionedCall/Const_1420", "shape": [4, 2], "dtype": "int32"}, {"name": "PartitionedCall/transpose_170/perm", "shape": [4], "dtype": "int32"}, {"name": "PartitionedCall/Reshape_239", "shape": [3, 3, 80, 1], "dtype": "float32"}, {"name": "PartitionedCall/transpose_171/perm", "shape": [4], "dtype": "int32"}, {"name": "PartitionedCall/onnx_tf_prefix_p2o.BatchNormalization.55/mul", "shape": [1, 80, 1, 1], "dtype": "float32"}, {"name": "PartitionedCall/onnx_tf_prefix_p2o.BatchNormalization.55/sub", "shape": [1, 80, 1, 1], "dtype": "float32"}, {"name": "PartitionedCall/transpose_173/perm", "shape": [4], "dtype": "int32"}, {"name": "PartitionedCall/split_36", "shape": [1, 1, 80, 80], "dtype": "float32"}, {"name": "PartitionedCall/transpose_174/perm", "shape": [4], "dtype": "int32"}, {"name": "PartitionedCall/onnx_tf_prefix_p2o.BatchNormalization.56/mul", "shape": [1, 80, 1, 1], "dtype": "float32"}, {"name": "PartitionedCall/onnx_tf_prefix_p2o.BatchNormalization.56/sub", "shape": [1, 80, 1, 1], "dtype": "float32"}, {"name": "PartitionedCall/onnx_tf_prefix_p2o.Concat.26/axis", "shape": [], "dtype": "int32"}, {"name": "PartitionedCall/Squeeze_26", "shape": [0], "dtype": "int32"}, {"name": "PartitionedCall/GatherV2_26/axis", "shape": [], "dtype": "int32"}, {"name": "PartitionedCall/zeros_26", "shape": [], "dtype": "int32"}, {"name": "PartitionedCall/onnx_tf_prefix_p2o.Transpose.13/perm", "shape": [5], "dtype": "int32"}, {"name": "PartitionedCall/Squeeze_27", "shape": [0], "dtype": "int32"}, {"name": "PartitionedCall/GatherV2_27/axis", "shape": [], "dtype": "int32"}, {"name": "PartitionedCall/zeros_27", "shape": [], "dtype": "int32"}, {"name": "PartitionedCall/strided_slice_18/stack", "shape": [1], "dtype": "int32"}, {"name": "PartitionedCall/strided_slice_18/stack_1", "shape": [1], "dtype": "int32"}, {"name": "PartitionedCall/strided_slice_18/stack_2", "shape": [1], "dtype": "int32"}, {"name": "ConstantFolding/PartitionedCall/truediv_14_recip", "shape": [], "dtype": "float32"}, {"name": "PartitionedCall/onnx_tf_prefix_p2o.Split.14/split_dim", "shape": [], "dtype": "int32"}, {"name": "PartitionedCall/transpose_176/perm", "shape": [4], "dtype": "int32"}, {"name": "PartitionedCall/split_37", "shape": [1, 1, 80, 80], "dtype": "float32"}, {"name": "PartitionedCall/transpose_177/perm", "shape": [4], "dtype": "int32"}, {"name": "PartitionedCall/onnx_tf_prefix_p2o.BatchNormalization.57/mul", "shape": [1, 80, 1, 1], "dtype": "float32"}, {"name": "PartitionedCall/onnx_tf_prefix_p2o.BatchNormalization.57/sub", "shape": [1, 80, 1, 1], "dtype": "float32"}, {"name": "PartitionedCall/Const_1425", "shape": [4, 2], "dtype": "int32"}, {"name": "PartitionedCall/transpose_179/perm", "shape": [4], "dtype": "int32"}, {"name": "PartitionedCall/Reshape_252", "shape": [3, 3, 80, 1], "dtype": "float32"}, {"name": "PartitionedCall/transpose_180/perm", "shape": [4], "dtype": "int32"}, {"name": "PartitionedCall/onnx_tf_prefix_p2o.BatchNormalization.58/mul", "shape": [1, 80, 1, 1], "dtype": "float32"}, {"name": "PartitionedCall/onnx_tf_prefix_p2o.BatchNormalization.58/sub", "shape": [1, 80, 1, 1], "dtype": "float32"}, {"name": "PartitionedCall/transpose_182/perm", "shape": [4], "dtype": "int32"}, {"name": "PartitionedCall/split_38", "shape": [1, 1, 80, 80], "dtype": "float32"}, {"name": "PartitionedCall/transpose_183/perm", "shape": [4], "dtype": "int32"}, {"name": "PartitionedCall/onnx_tf_prefix_p2o.BatchNormalization.59/mul", "shape": [1, 80, 1, 1], "dtype": "float32"}, {"name": "PartitionedCall/onnx_tf_prefix_p2o.BatchNormalization.59/sub", "shape": [1, 80, 1, 1], "dtype": "float32"}, {"name": "PartitionedCall/onnx_tf_prefix_p2o.Concat.28/axis", "shape": [], "dtype": "int32"}, {"name": "PartitionedCall/Squeeze_28", "shape": [0], "dtype": "int32"}, {"name": "PartitionedCall/GatherV2_28/axis", "shape": [], "dtype": "int32"}, {"name": "PartitionedCall/zeros_28", "shape": [], "dtype": "int32"}, {"name": "PartitionedCall/onnx_tf_prefix_p2o.Transpose.14/perm", "shape": [5], "dtype": "int32"}, {"name": "PartitionedCall/Squeeze_29", "shape": [0], "dtype": "int32"}, {"name": "PartitionedCall/GatherV2_29/axis", "shape": [], "dtype": "int32"}, {"name": "PartitionedCall/zeros_29", "shape": [], "dtype": "int32"}, {"name": "PartitionedCall/strided_slice_29/stack", "shape": [1], "dtype": "int32"}, {"name": "PartitionedCall/strided_slice_29/stack_1", "shape": [1], "dtype": "int32"}, {"name": "PartitionedCall/strided_slice_29/stack_2", "shape": [1], "dtype": "int32"}, {"name": "ConstantFolding/PartitionedCall/truediv_19_recip", "shape": [], "dtype": "float32"}, {"name": "PartitionedCall/onnx_tf_prefix_p2o.Split.19/split_dim", "shape": [], "dtype": "int32"}, {"name": "PartitionedCall/transpose_260/perm", "shape": [4], "dtype": "int32"}, {"name": "PartitionedCall/split_54", "shape": [1, 1, 80, 80], "dtype": "float32"}, {"name": "PartitionedCall/transpose_261/perm", "shape": [4], "dtype": "int32"}, {"name": "PartitionedCall/onnx_tf_prefix_p2o.BatchNormalization.83/mul", "shape": [1, 80, 1, 1], "dtype": "float32"}, {"name": "PartitionedCall/onnx_tf_prefix_p2o.BatchNormalization.83/sub", "shape": [1, 80, 1, 1], "dtype": "float32"}, {"name": "PartitionedCall/Const_1463", "shape": [4, 2], "dtype": "int32"}, {"name": "PartitionedCall/transpose_263/perm", "shape": [4], "dtype": "int32"}, {"name": "PartitionedCall/Reshape_365", "shape": [3, 3, 80, 1], "dtype": "float32"}, {"name": "PartitionedCall/transpose_264/perm", "shape": [4], "dtype": "int32"}, {"name": "PartitionedCall/onnx_tf_prefix_p2o.BatchNormalization.84/mul", "shape": [1, 80, 1, 1], "dtype": "float32"}, {"name": "PartitionedCall/onnx_tf_prefix_p2o.BatchNormalization.84/sub", "shape": [1, 80, 1, 1], "dtype": "float32"}, {"name": "PartitionedCall/transpose_266/perm", "shape": [4], "dtype": "int32"}, {"name": "PartitionedCall/split_55", "shape": [1, 1, 80, 80], "dtype": "float32"}, {"name": "PartitionedCall/transpose_267/perm", "shape": [4], "dtype": "int32"}, {"name": "PartitionedCall/onnx_tf_prefix_p2o.BatchNormalization.85/mul", "shape": [1, 80, 1, 1], "dtype": "float32"}, {"name": "PartitionedCall/onnx_tf_prefix_p2o.BatchNormalization.85/sub", "shape": [1, 80, 1, 1], "dtype": "float32"}, {"name": "PartitionedCall/onnx_tf_prefix_p2o.Concat.38/axis", "shape": [], "dtype": "int32"}, {"name": "PartitionedCall/Squeeze_38", "shape": [0], "dtype": "int32"}, {"name": "PartitionedCall/GatherV2_38/axis", "shape": [], "dtype": "int32"}, {"name": "PartitionedCall/zeros_38", "shape": [], "dtype": "int32"}, {"name": "PartitionedCall/onnx_tf_prefix_p2o.Transpose.19/perm", "shape": [5], "dtype": "int32"}, {"name": "PartitionedCall/Squeeze_39", "shape": [0], "dtype": "int32"}, {"name": "PartitionedCall/GatherV2_39/axis", "shape": [], "dtype": "int32"}, {"name": "PartitionedCall/zeros_39", "shape": [], "dtype": "int32"}, {"name": "PartitionedCall/strided_slice_30/stack", "shape": [1], "dtype": "int32"}, {"name": "PartitionedCall/strided_slice_30/stack_1", "shape": [1], "dtype": "int32"}, {"name": "PartitionedCall/strided_slice_30/stack_2", "shape": [1], "dtype": "int32"}, {"name": "ConstantFolding/PartitionedCall/truediv_20_recip", "shape": [], "dtype": "float32"}, {"name": "PartitionedCall/onnx_tf_prefix_p2o.Split.20/split_dim", "shape": [], "dtype": "int32"}, {"name": "PartitionedCall/transpose_269/perm", "shape": [4], "dtype": "int32"}, {"name": "PartitionedCall/split_56", "shape": [1, 1, 80, 80], "dtype": "float32"}, {"name": "PartitionedCall/transpose_270/perm", "shape": [4], "dtype": "int32"}, {"name": "PartitionedCall/onnx_tf_prefix_p2o.BatchNormalization.86/mul", "shape": [1, 80, 1, 1], "dtype": "float32"}, {"name": "PartitionedCall/onnx_tf_prefix_p2o.BatchNormalization.86/sub", "shape": [1, 80, 1, 1], "dtype": "float32"}, {"name": "PartitionedCall/Const_1468", "shape": [4, 2], "dtype": "int32"}, {"name": "PartitionedCall/transpose_272/perm", "shape": [4], "dtype": "int32"}, {"name": "PartitionedCall/Reshape_378", "shape": [3, 3, 80, 1], "dtype": "float32"}, {"name": "PartitionedCall/transpose_273/perm", "shape": [4], "dtype": "int32"}, {"name": "PartitionedCall/onnx_tf_prefix_p2o.BatchNormalization.87/mul", "shape": [1, 80, 1, 1], "dtype": "float32"}, {"name": "PartitionedCall/onnx_tf_prefix_p2o.BatchNormalization.87/sub", "shape": [1, 80, 1, 1], "dtype": "float32"}, {"name": "PartitionedCall/transpose_275/perm", "shape": [4], "dtype": "int32"}, {"name": "PartitionedCall/split_57", "shape": [1, 1, 80, 80], "dtype": "float32"}, {"name": "PartitionedCall/transpose_276/perm", "shape": [4], "dtype": "int32"}, {"name": "PartitionedCall/onnx_tf_prefix_p2o.BatchNormalization.88/mul", "shape": [1, 80, 1, 1], "dtype": "float32"}, {"name": "PartitionedCall/onnx_tf_prefix_p2o.BatchNormalization.88/sub", "shape": [1, 80, 1, 1], "dtype": "float32"}, {"name": "PartitionedCall/onnx_tf_prefix_p2o.Concat.40/axis", "shape": [], "dtype": "int32"}, {"name": "PartitionedCall/Squeeze_40", "shape": [0], "dtype": "int32"}, {"name": "PartitionedCall/GatherV2_40/axis", "shape": [], "dtype": "int32"}, {"name": "PartitionedCall/zeros_40", "shape": [], "dtype": "int32"}, {"name": "PartitionedCall/onnx_tf_prefix_p2o.Transpose.20/perm", "shape": [5], "dtype": "int32"}, {"name": "PartitionedCall/Squeeze_41", "shape": [0], "dtype": "int32"}, {"name": "PartitionedCall/GatherV2_41/axis", "shape": [], "dtype": "int32"}, {"name": "PartitionedCall/zeros_41", "shape": [], "dtype": "int32"}, {"name": "PartitionedCall/strided_slice_41/stack", "shape": [1], "dtype": "int32"}, {"name": "PartitionedCall/strided_slice_41/stack_1", "shape": [1], "dtype": "int32"}, {"name": "PartitionedCall/strided_slice_41/stack_2", "shape": [1], "dtype": "int32"}, {"name": "ConstantFolding/PartitionedCall/truediv_25_recip", "shape": [], "dtype": "float32"}, {"name": "PartitionedCall/onnx_tf_prefix_p2o.Split.25/split_dim", "shape": [], "dtype": "int32"}, {"name": "PartitionedCall/transpose_353/perm", "shape": [4], "dtype": "int32"}, {"name": "PartitionedCall/split_73", "shape": [1, 1, 80, 80], "dtype": "float32"}, {"name": "PartitionedCall/transpose_354/perm", "shape": [4], "dtype": "int32"}, {"name": "PartitionedCall/onnx_tf_prefix_p2o.BatchNormalization.112/mul", "shape": [1, 80, 1, 1], "dtype": "float32"}, {"name": "PartitionedCall/onnx_tf_prefix_p2o.BatchNormalization.112/sub", "shape": [1, 80, 1, 1], "dtype": "float32"}, {"name": "PartitionedCall/Const_1506", "shape": [4, 2], "dtype": "int32"}, {"name": "PartitionedCall/transpose_356/perm", "shape": [4], "dtype": "int32"}, {"name": "PartitionedCall/Reshape_491", "shape": [3, 3, 80, 1], "dtype": "float32"}, {"name": "PartitionedCall/transpose_357/perm", "shape": [4], "dtype": "int32"}, {"name": "PartitionedCall/onnx_tf_prefix_p2o.BatchNormalization.113/mul", "shape": [1, 80, 1, 1], "dtype": "float32"}, {"name": "PartitionedCall/onnx_tf_prefix_p2o.BatchNormalization.113/sub", "shape": [1, 80, 1, 1], "dtype": "float32"}, {"name": "PartitionedCall/transpose_359/perm", "shape": [4], "dtype": "int32"}, {"name": "PartitionedCall/split_74", "shape": [1, 1, 80, 80], "dtype": "float32"}, {"name": "PartitionedCall/transpose_360/perm", "shape": [4], "dtype": "int32"}, {"name": "PartitionedCall/onnx_tf_prefix_p2o.BatchNormalization.114/mul", "shape": [1, 80, 1, 1], "dtype": "float32"}, {"name": "PartitionedCall/onnx_tf_prefix_p2o.BatchNormalization.114/sub", "shape": [1, 80, 1, 1], "dtype": "float32"}, {"name": "PartitionedCall/onnx_tf_prefix_p2o.Concat.50/axis", "shape": [], "dtype": "int32"}, {"name": "PartitionedCall/Squeeze_50", "shape": [0], "dtype": "int32"}, {"name": "PartitionedCall/GatherV2_50/axis", "shape": [], "dtype": "int32"}, {"name": "PartitionedCall/zeros_50", "shape": [], "dtype": "int32"}, {"name": "PartitionedCall/onnx_tf_prefix_p2o.Transpose.25/perm", "shape": [5], "dtype": "int32"}, {"name": "PartitionedCall/Squeeze_51", "shape": [0], "dtype": "int32"}, {"name": "PartitionedCall/GatherV2_51/axis", "shape": [], "dtype": "int32"}, {"name": "PartitionedCall/zeros_51", "shape": [], "dtype": "int32"}, {"name": "PartitionedCall/strided_slice_42/stack", "shape": [1], "dtype": "int32"}, {"name": "PartitionedCall/strided_slice_42/stack_1", "shape": [1], "dtype": "int32"}, {"name": "PartitionedCall/strided_slice_42/stack_2", "shape": [1], "dtype": "int32"}, {"name": "ConstantFolding/PartitionedCall/truediv_26_recip", "shape": [], "dtype": "float32"}, {"name": "PartitionedCall/onnx_tf_prefix_p2o.Split.26/split_dim", "shape": [], "dtype": "int32"}, {"name": "PartitionedCall/transpose_362/perm", "shape": [4], "dtype": "int32"}, {"name": "PartitionedCall/split_75", "shape": [1, 1, 80, 80], "dtype": "float32"}, {"name": "PartitionedCall/transpose_363/perm", "shape": [4], "dtype": "int32"}, {"name": "PartitionedCall/onnx_tf_prefix_p2o.BatchNormalization.115/mul", "shape": [1, 80, 1, 1], "dtype": "float32"}, {"name": "PartitionedCall/onnx_tf_prefix_p2o.BatchNormalization.115/sub", "shape": [1, 80, 1, 1], "dtype": "float32"}, {"name": "PartitionedCall/Const_1511", "shape": [4, 2], "dtype": "int32"}, {"name": "PartitionedCall/transpose_365/perm", "shape": [4], "dtype": "int32"}, {"name": "PartitionedCall/Reshape_504", "shape": [3, 3, 80, 1], "dtype": "float32"}, {"name": "PartitionedCall/transpose_366/perm", "shape": [4], "dtype": "int32"}, {"name": "PartitionedCall/onnx_tf_prefix_p2o.BatchNormalization.116/mul", "shape": [1, 80, 1, 1], "dtype": "float32"}, {"name": "PartitionedCall/onnx_tf_prefix_p2o.BatchNormalization.116/sub", "shape": [1, 80, 1, 1], "dtype": "float32"}, {"name": "PartitionedCall/transpose_368/perm", "shape": [4], "dtype": "int32"}, {"name": "PartitionedCall/split_76", "shape": [1, 1, 80, 80], "dtype": "float32"}, {"name": "PartitionedCall/transpose_369/perm", "shape": [4], "dtype": "int32"}, {"name": "PartitionedCall/onnx_tf_prefix_p2o.BatchNormalization.117/mul", "shape": [1, 80, 1, 1], "dtype": "float32"}, {"name": "PartitionedCall/onnx_tf_prefix_p2o.BatchNormalization.117/sub", "shape": [1, 80, 1, 1], "dtype": "float32"}, {"name": "PartitionedCall/onnx_tf_prefix_p2o.Concat.52/axis", "shape": [], "dtype": "int32"}, {"name": "PartitionedCall/Squeeze_52", "shape": [0], "dtype": "int32"}, {"name": "PartitionedCall/GatherV2_52/axis", "shape": [], "dtype": "int32"}, {"name": "PartitionedCall/zeros_52", "shape": [], "dtype": "int32"}, {"name": "PartitionedCall/onnx_tf_prefix_p2o.Transpose.26/perm", "shape": [5], "dtype": "int32"}, {"name": "PartitionedCall/Squeeze_53", "shape": [0], "dtype": "int32"}, {"name": "PartitionedCall/GatherV2_53/axis", "shape": [], "dtype": "int32"}, {"name": "PartitionedCall/zeros_53", "shape": [], "dtype": "int32"}, {"name": "PartitionedCall/strided_slice_53/stack", "shape": [1], "dtype": "int32"}, {"name": "PartitionedCall/strided_slice_53/stack_1", "shape": [1], "dtype": "int32"}, {"name": "PartitionedCall/strided_slice_53/stack_2", "shape": [1], "dtype": "int32"}, {"name": "ConstantFolding/PartitionedCall/truediv_31_recip", "shape": [], "dtype": "float32"}, {"name": "PartitionedCall/onnx_tf_prefix_p2o.Split.31/split_dim", "shape": [], "dtype": "int32"}, {"name": "PartitionedCall/transpose_446/perm", "shape": [4], "dtype": "int32"}, {"name": "PartitionedCall/split_92", "shape": [1, 1, 80, 80], "dtype": "float32"}, {"name": "PartitionedCall/transpose_447/perm", "shape": [4], "dtype": "int32"}, {"name": "PartitionedCall/onnx_tf_prefix_p2o.BatchNormalization.141/mul", "shape": [1, 80, 1, 1], "dtype": "float32"}, {"name": "PartitionedCall/onnx_tf_prefix_p2o.BatchNormalization.141/sub", "shape": [1, 80, 1, 1], "dtype": "float32"}, {"name": "PartitionedCall/Const_1549", "shape": [4, 2], "dtype": "int32"}, {"name": "PartitionedCall/transpose_449/perm", "shape": [4], "dtype": "int32"}, {"name": "PartitionedCall/Reshape_617", "shape": [3, 3, 80, 1], "dtype": "float32"}, {"name": "PartitionedCall/transpose_450/perm", "shape": [4], "dtype": "int32"}, {"name": "PartitionedCall/onnx_tf_prefix_p2o.BatchNormalization.142/mul", "shape": [1, 80, 1, 1], "dtype": "float32"}, {"name": "PartitionedCall/onnx_tf_prefix_p2o.BatchNormalization.142/sub", "shape": [1, 80, 1, 1], "dtype": "float32"}, {"name": "PartitionedCall/transpose_452/perm", "shape": [4], "dtype": "int32"}, {"name": "PartitionedCall/split_93", "shape": [1, 1, 80, 80], "dtype": "float32"}, {"name": "PartitionedCall/transpose_453/perm", "shape": [4], "dtype": "int32"}, {"name": "PartitionedCall/onnx_tf_prefix_p2o.BatchNormalization.143/mul", "shape": [1, 80, 1, 1], "dtype": "float32"}, {"name": "PartitionedCall/onnx_tf_prefix_p2o.BatchNormalization.143/sub", "shape": [1, 80, 1, 1], "dtype": "float32"}, {"name": "PartitionedCall/onnx_tf_prefix_p2o.Concat.62/axis", "shape": [], "dtype": "int32"}, {"name": "PartitionedCall/Squeeze_62", "shape": [0], "dtype": "int32"}, {"name": "PartitionedCall/GatherV2_62/axis", "shape": [], "dtype": "int32"}, {"name": "PartitionedCall/zeros_62", "shape": [], "dtype": "int32"}, {"name": "PartitionedCall/onnx_tf_prefix_p2o.Transpose.31/perm", "shape": [5], "dtype": "int32"}, {"name": "PartitionedCall/Squeeze_63", "shape": [0], "dtype": "int32"}, {"name": "PartitionedCall/GatherV2_63/axis", "shape": [], "dtype": "int32"}, {"name": "PartitionedCall/zeros_63", "shape": [], "dtype": "int32"}, {"name": "PartitionedCall/strided_slice_54/stack", "shape": [1], "dtype": "int32"}, {"name": "PartitionedCall/strided_slice_54/stack_1", "shape": [1], "dtype": "int32"}, {"name": "PartitionedCall/strided_slice_54/stack_2", "shape": [1], "dtype": "int32"}, {"name": "ConstantFolding/PartitionedCall/truediv_32_recip", "shape": [], "dtype": "float32"}, {"name": "PartitionedCall/onnx_tf_prefix_p2o.Split.32/split_dim", "shape": [], "dtype": "int32"}, {"name": "PartitionedCall/transpose_455/perm", "shape": [4], "dtype": "int32"}, {"name": "PartitionedCall/split_94", "shape": [1, 1, 80, 80], "dtype": "float32"}, {"name": "PartitionedCall/transpose_456/perm", "shape": [4], "dtype": "int32"}, {"name": "PartitionedCall/onnx_tf_prefix_p2o.BatchNormalization.144/mul", "shape": [1, 80, 1, 1], "dtype": "float32"}, {"name": "PartitionedCall/onnx_tf_prefix_p2o.BatchNormalization.144/sub", "shape": [1, 80, 1, 1], "dtype": "float32"}, {"name": "PartitionedCall/Const_1554", "shape": [4, 2], "dtype": "int32"}, {"name": "PartitionedCall/transpose_458/perm", "shape": [4], "dtype": "int32"}, {"name": "PartitionedCall/Reshape_630", "shape": [3, 3, 80, 1], "dtype": "float32"}, {"name": "PartitionedCall/transpose_459/perm", "shape": [4], "dtype": "int32"}, {"name": "PartitionedCall/onnx_tf_prefix_p2o.BatchNormalization.145/mul", "shape": [1, 80, 1, 1], "dtype": "float32"}, {"name": "PartitionedCall/onnx_tf_prefix_p2o.BatchNormalization.145/sub", "shape": [1, 80, 1, 1], "dtype": "float32"}, {"name": "PartitionedCall/transpose_461/perm", "shape": [4], "dtype": "int32"}, {"name": "PartitionedCall/split_95", "shape": [1, 1, 80, 80], "dtype": "float32"}, {"name": "PartitionedCall/transpose_462/perm", "shape": [4], "dtype": "int32"}, {"name": "PartitionedCall/onnx_tf_prefix_p2o.BatchNormalization.146/mul", "shape": [1, 80, 1, 1], "dtype": "float32"}, {"name": "PartitionedCall/onnx_tf_prefix_p2o.BatchNormalization.146/sub", "shape": [1, 80, 1, 1], "dtype": "float32"}, {"name": "PartitionedCall/onnx_tf_prefix_p2o.Concat.64/axis", "shape": [], "dtype": "int32"}, {"name": "PartitionedCall/Squeeze_64", "shape": [0], "dtype": "int32"}, {"name": "PartitionedCall/GatherV2_64/axis", "shape": [], "dtype": "int32"}, {"name": "PartitionedCall/zeros_64", "shape": [], "dtype": "int32"}, {"name": "PartitionedCall/onnx_tf_prefix_p2o.Transpose.32/perm", "shape": [5], "dtype": "int32"}, {"name": "PartitionedCall/Squeeze_65", "shape": [0], "dtype": "int32"}, {"name": "PartitionedCall/GatherV2_65/axis", "shape": [], "dtype": "int32"}, {"name": "PartitionedCall/zeros_65", "shape": [], "dtype": "int32"}, {"name": "PartitionedCall/Const_1572", "shape": [4, 2], "dtype": "int32"}, {"name": "PartitionedCall/transpose_503/perm", "shape": [4], "dtype": "int32"}, {"name": "PartitionedCall/Reshape_687", "shape": [3, 3, 160, 1], "dtype": "float32"}, {"name": "PartitionedCall/transpose_504/perm", "shape": [4], "dtype": "int32"}, {"name": "PartitionedCall/onnx_tf_prefix_p2o.BatchNormalization.158/mul", "shape": [1, 160, 1, 1], "dtype": "float32"}, {"name": "PartitionedCall/onnx_tf_prefix_p2o.BatchNormalization.158/sub", "shape": [1, 160, 1, 1], "dtype": "float32"}, {"name": "PartitionedCall/transpose_506/perm", "shape": [4], "dtype": "int32"}, {"name": "PartitionedCall/split_103", "shape": [1, 1, 160, 320], "dtype": "float32"}, {"name": "PartitionedCall/transpose_507/perm", "shape": [4], "dtype": "int32"}, {"name": "PartitionedCall/onnx_tf_prefix_p2o.BatchNormalization.159/mul", "shape": [1, 320, 1, 1], "dtype": "float32"}, {"name": "PartitionedCall/onnx_tf_prefix_p2o.BatchNormalization.159/sub", "shape": [1, 320, 1, 1], "dtype": "float32"}, {"name": "PartitionedCall/strided_slice_67/stack", "shape": [1], "dtype": "int32"}, {"name": "PartitionedCall/strided_slice_67/stack_1", "shape": [1], "dtype": "int32"}, {"name": "PartitionedCall/strided_slice_67/stack_2", "shape": [1], "dtype": "int32"}, {"name": "ConstantFolding/PartitionedCall/truediv_39_recip", "shape": [], "dtype": "float32"}, {"name": "PartitionedCall/onnx_tf_prefix_p2o.Split.39/split_dim", "shape": [], "dtype": "int32"}, {"name": "PartitionedCall/transpose_563/perm", "shape": [4], "dtype": "int32"}, {"name": "PartitionedCall/split_116", "shape": [1, 1, 160, 160], "dtype": "float32"}, {"name": "PartitionedCall/transpose_564/perm", "shape": [4], "dtype": "int32"}, {"name": "PartitionedCall/onnx_tf_prefix_p2o.BatchNormalization.178/mul", "shape": [1, 160, 1, 1], "dtype": "float32"}, {"name": "PartitionedCall/onnx_tf_prefix_p2o.BatchNormalization.178/sub", "shape": [1, 160, 1, 1], "dtype": "float32"}, {"name": "PartitionedCall/Const_1603", "shape": [4, 2], "dtype": "int32"}, {"name": "PartitionedCall/transpose_566/perm", "shape": [4], "dtype": "int32"}, {"name": "PartitionedCall/Reshape_778", "shape": [3, 3, 160, 1], "dtype": "float32"}, {"name": "PartitionedCall/transpose_567/perm", "shape": [4], "dtype": "int32"}, {"name": "PartitionedCall/onnx_tf_prefix_p2o.BatchNormalization.179/mul", "shape": [1, 160, 1, 1], "dtype": "float32"}, {"name": "PartitionedCall/onnx_tf_prefix_p2o.BatchNormalization.179/sub", "shape": [1, 160, 1, 1], "dtype": "float32"}, {"name": "PartitionedCall/transpose_569/perm", "shape": [4], "dtype": "int32"}, {"name": "PartitionedCall/split_117", "shape": [1, 1, 160, 160], "dtype": "float32"}, {"name": "PartitionedCall/transpose_570/perm", "shape": [4], "dtype": "int32"}, {"name": "PartitionedCall/onnx_tf_prefix_p2o.BatchNormalization.180/mul", "shape": [1, 160, 1, 1], "dtype": "float32"}, {"name": "PartitionedCall/onnx_tf_prefix_p2o.BatchNormalization.180/sub", "shape": [1, 160, 1, 1], "dtype": "float32"}, {"name": "PartitionedCall/onnx_tf_prefix_p2o.Concat.78/axis", "shape": [], "dtype": "int32"}, {"name": "PartitionedCall/Squeeze_78", "shape": [0], "dtype": "int32"}, {"name": "PartitionedCall/GatherV2_78/axis", "shape": [], "dtype": "int32"}, {"name": "PartitionedCall/zeros_78", "shape": [], "dtype": "int32"}, {"name": "PartitionedCall/onnx_tf_prefix_p2o.Transpose.39/perm", "shape": [5], "dtype": "int32"}, {"name": "PartitionedCall/Squeeze_79", "shape": [0], "dtype": "int32"}, {"name": "PartitionedCall/GatherV2_79/axis", "shape": [], "dtype": "int32"}, {"name": "PartitionedCall/zeros_79", "shape": [], "dtype": "int32"}, {"name": "PartitionedCall/strided_slice_68/stack", "shape": [1], "dtype": "int32"}, {"name": "PartitionedCall/strided_slice_68/stack_1", "shape": [1], "dtype": "int32"}, {"name": "PartitionedCall/strided_slice_68/stack_2", "shape": [1], "dtype": "int32"}, {"name": "ConstantFolding/PartitionedCall/truediv_40_recip", "shape": [], "dtype": "float32"}, {"name": "PartitionedCall/onnx_tf_prefix_p2o.Split.40/split_dim", "shape": [], "dtype": "int32"}, {"name": "PartitionedCall/transpose_572/perm", "shape": [4], "dtype": "int32"}, {"name": "PartitionedCall/split_118", "shape": [1, 1, 160, 160], "dtype": "float32"}, {"name": "PartitionedCall/transpose_573/perm", "shape": [4], "dtype": "int32"}, {"name": "PartitionedCall/onnx_tf_prefix_p2o.BatchNormalization.181/mul", "shape": [1, 160, 1, 1], "dtype": "float32"}, {"name": "PartitionedCall/onnx_tf_prefix_p2o.BatchNormalization.181/sub", "shape": [1, 160, 1, 1], "dtype": "float32"}, {"name": "PartitionedCall/Const_1608", "shape": [4, 2], "dtype": "int32"}, {"name": "PartitionedCall/transpose_575/perm", "shape": [4], "dtype": "int32"}, {"name": "PartitionedCall/Reshape_791", "shape": [3, 3, 160, 1], "dtype": "float32"}, {"name": "PartitionedCall/transpose_576/perm", "shape": [4], "dtype": "int32"}, {"name": "PartitionedCall/onnx_tf_prefix_p2o.BatchNormalization.182/mul", "shape": [1, 160, 1, 1], "dtype": "float32"}, {"name": "PartitionedCall/onnx_tf_prefix_p2o.BatchNormalization.182/sub", "shape": [1, 160, 1, 1], "dtype": "float32"}, {"name": "PartitionedCall/transpose_578/perm", "shape": [4], "dtype": "int32"}, {"name": "PartitionedCall/split_119", "shape": [1, 1, 160, 160], "dtype": "float32"}, {"name": "PartitionedCall/transpose_579/perm", "shape": [4], "dtype": "int32"}, {"name": "PartitionedCall/onnx_tf_prefix_p2o.BatchNormalization.183/mul", "shape": [1, 160, 1, 1], "dtype": "float32"}, {"name": "PartitionedCall/onnx_tf_prefix_p2o.BatchNormalization.183/sub", "shape": [1, 160, 1, 1], "dtype": "float32"}, {"name": "PartitionedCall/onnx_tf_prefix_p2o.Concat.80/axis", "shape": [], "dtype": "int32"}, {"name": "PartitionedCall/Squeeze_80", "shape": [0], "dtype": "int32"}, {"name": "PartitionedCall/GatherV2_80/axis", "shape": [], "dtype": "int32"}, {"name": "PartitionedCall/zeros_80", "shape": [], "dtype": "int32"}, {"name": "PartitionedCall/onnx_tf_prefix_p2o.Transpose.40/perm", "shape": [5], "dtype": "int32"}, {"name": "PartitionedCall/Squeeze_81", "shape": [0], "dtype": "int32"}, {"name": "PartitionedCall/GatherV2_81/axis", "shape": [], "dtype": "int32"}, {"name": "PartitionedCall/zeros_81", "shape": [], "dtype": "int32"}, {"name": "PartitionedCall/strided_slice_87/stack", "shape": [1], "dtype": "int32"}, {"name": "PartitionedCall/strided_slice_87/stack_1", "shape": [1], "dtype": "int32"}, {"name": "PartitionedCall/strided_slice_87/stack_2", "shape": [1], "dtype": "int32"}, {"name": "ConstantFolding/PartitionedCall/truediv_47_recip", "shape": [], "dtype": "float32"}, {"name": "PartitionedCall/onnx_tf_prefix_p2o.Split.47/split_dim", "shape": [], "dtype": "int32"}, {"name": "PartitionedCall/transpose_725/perm", "shape": [4], "dtype": "int32"}, {"name": "PartitionedCall/split_148", "shape": [1, 1, 160, 160], "dtype": "float32"}, {"name": "PartitionedCall/transpose_726/perm", "shape": [4], "dtype": "int32"}, {"name": "PartitionedCall/onnx_tf_prefix_p2o.BatchNormalization.228/mul", "shape": [1, 160, 1, 1], "dtype": "float32"}, {"name": "PartitionedCall/onnx_tf_prefix_p2o.BatchNormalization.228/sub", "shape": [1, 160, 1, 1], "dtype": "float32"}, {"name": "PartitionedCall/Const_1671", "shape": [4, 2], "dtype": "int32"}, {"name": "PartitionedCall/transpose_728/perm", "shape": [4], "dtype": "int32"}, {"name": "PartitionedCall/Reshape_996", "shape": [3, 3, 160, 1], "dtype": "float32"}, {"name": "PartitionedCall/transpose_729/perm", "shape": [4], "dtype": "int32"}, {"name": "PartitionedCall/onnx_tf_prefix_p2o.BatchNormalization.229/mul", "shape": [1, 160, 1, 1], "dtype": "float32"}, {"name": "PartitionedCall/onnx_tf_prefix_p2o.BatchNormalization.229/sub", "shape": [1, 160, 1, 1], "dtype": "float32"}, {"name": "PartitionedCall/transpose_731/perm", "shape": [4], "dtype": "int32"}, {"name": "PartitionedCall/split_149", "shape": [1, 1, 160, 160], "dtype": "float32"}, {"name": "PartitionedCall/transpose_732/perm", "shape": [4], "dtype": "int32"}, {"name": "PartitionedCall/onnx_tf_prefix_p2o.BatchNormalization.230/mul", "shape": [1, 160, 1, 1], "dtype": "float32"}, {"name": "PartitionedCall/onnx_tf_prefix_p2o.BatchNormalization.230/sub", "shape": [1, 160, 1, 1], "dtype": "float32"}, {"name": "PartitionedCall/onnx_tf_prefix_p2o.Concat.94/axis", "shape": [], "dtype": "int32"}, {"name": "PartitionedCall/Squeeze_94", "shape": [0], "dtype": "int32"}, {"name": "PartitionedCall/GatherV2_94/axis", "shape": [], "dtype": "int32"}, {"name": "PartitionedCall/zeros_94", "shape": [], "dtype": "int32"}, {"name": "PartitionedCall/onnx_tf_prefix_p2o.Transpose.47/perm", "shape": [5], "dtype": "int32"}, {"name": "PartitionedCall/Squeeze_95", "shape": [0], "dtype": "int32"}, {"name": "PartitionedCall/GatherV2_95/axis", "shape": [], "dtype": "int32"}, {"name": "PartitionedCall/zeros_95", "shape": [], "dtype": "int32"}, {"name": "PartitionedCall/strided_slice_88/stack", "shape": [1], "dtype": "int32"}, {"name": "PartitionedCall/strided_slice_88/stack_1", "shape": [1], "dtype": "int32"}, {"name": "PartitionedCall/strided_slice_88/stack_2", "shape": [1], "dtype": "int32"}, {"name": "ConstantFolding/PartitionedCall/truediv_48_recip", "shape": [], "dtype": "float32"}, {"name": "PartitionedCall/onnx_tf_prefix_p2o.Split.48/split_dim", "shape": [], "dtype": "int32"}, {"name": "PartitionedCall/transpose_734/perm", "shape": [4], "dtype": "int32"}, {"name": "PartitionedCall/split_150", "shape": [1, 1, 160, 160], "dtype": "float32"}, {"name": "PartitionedCall/transpose_735/perm", "shape": [4], "dtype": "int32"}, {"name": "PartitionedCall/onnx_tf_prefix_p2o.BatchNormalization.231/mul", "shape": [1, 160, 1, 1], "dtype": "float32"}, {"name": "PartitionedCall/onnx_tf_prefix_p2o.BatchNormalization.231/sub", "shape": [1, 160, 1, 1], "dtype": "float32"}, {"name": "PartitionedCall/Const_1676", "shape": [4, 2], "dtype": "int32"}, {"name": "PartitionedCall/transpose_737/perm", "shape": [4], "dtype": "int32"}, {"name": "PartitionedCall/Reshape_1009", "shape": [3, 3, 160, 1], "dtype": "float32"}, {"name": "PartitionedCall/transpose_738/perm", "shape": [4], "dtype": "int32"}, {"name": "PartitionedCall/onnx_tf_prefix_p2o.BatchNormalization.232/mul", "shape": [1, 160, 1, 1], "dtype": "float32"}, {"name": "PartitionedCall/onnx_tf_prefix_p2o.BatchNormalization.232/sub", "shape": [1, 160, 1, 1], "dtype": "float32"}, {"name": "PartitionedCall/transpose_740/perm", "shape": [4], "dtype": "int32"}, {"name": "PartitionedCall/split_151", "shape": [1, 1, 160, 160], "dtype": "float32"}, {"name": "PartitionedCall/transpose_741/perm", "shape": [4], "dtype": "int32"}, {"name": "PartitionedCall/onnx_tf_prefix_p2o.BatchNormalization.233/mul", "shape": [1, 160, 1, 1], "dtype": "float32"}, {"name": "PartitionedCall/onnx_tf_prefix_p2o.BatchNormalization.233/sub", "shape": [1, 160, 1, 1], "dtype": "float32"}, {"name": "PartitionedCall/onnx_tf_prefix_p2o.Concat.96/axis", "shape": [], "dtype": "int32"}, {"name": "PartitionedCall/Squeeze_96", "shape": [0], "dtype": "int32"}, {"name": "PartitionedCall/GatherV2_96/axis", "shape": [], "dtype": "int32"}, {"name": "PartitionedCall/zeros_96", "shape": [], "dtype": "int32"}, {"name": "PartitionedCall/onnx_tf_prefix_p2o.Transpose.48/perm", "shape": [5], "dtype": "int32"}, {"name": "PartitionedCall/Squeeze_97", "shape": [0], "dtype": "int32"}, {"name": "PartitionedCall/GatherV2_97/axis", "shape": [], "dtype": "int32"}, {"name": "PartitionedCall/zeros_97", "shape": [], "dtype": "int32"}, {"name": "PartitionedCall/Const_1709", "shape": [4, 2], "dtype": "int32"}, {"name": "PartitionedCall/transpose_833/perm", "shape": [4], "dtype": "int32"}, {"name": "PartitionedCall/Reshape_1132", "shape": [3, 3, 320, 1], "dtype": "float32"}, {"name": "PartitionedCall/transpose_834/perm", "shape": [4], "dtype": "int32"}, {"name": "PartitionedCall/onnx_tf_prefix_p2o.BatchNormalization.260/mul", "shape": [1, 320, 1, 1], "dtype": "float32"}, {"name": "PartitionedCall/onnx_tf_prefix_p2o.BatchNormalization.260/sub", "shape": [1, 320, 1, 1], "dtype": "float32"}, {"name": "PartitionedCall/transpose_836/perm", "shape": [4], "dtype": "int32"}, {"name": "PartitionedCall/split_168", "shape": [1, 1, 320, 160], "dtype": "float32"}, {"name": "PartitionedCall/transpose_837/perm", "shape": [4], "dtype": "int32"}, {"name": "PartitionedCall/onnx_tf_prefix_p2o.BatchNormalization.261/mul", "shape": [1, 160, 1, 1], "dtype": "float32"}, {"name": "PartitionedCall/onnx_tf_prefix_p2o.BatchNormalization.261/sub", "shape": [1, 160, 1, 1], "dtype": "float32"}, {"name": "PartitionedCall/SelectV2_1", "shape": [1], "dtype": "int32"}, {"name": "PartitionedCall/zeros_98", "shape": [], "dtype": "int32"}, {"name": "PartitionedCall/Const_1717", "shape": [], "dtype": "int32"}, {"name": "PartitionedCall/Shape_533", "shape": [1], "dtype": "int32"}, {"name": "PartitionedCall/ExpandDims", "shape": [1, 1], "dtype": "int32"}, {"name": "PartitionedCall/Cast_200", "shape": [1], "dtype": "int32"}, {"name": "PartitionedCall/SelectV2_2", "shape": [1], "dtype": "int32"}, {"name": "PartitionedCall/Const_1716", "shape": [], "dtype": "int32"}, {"name": "PartitionedCall/ones", "shape": [1], "dtype": "int32"}, {"name": "PartitionedCall/Const_1710", "shape": [2], "dtype": "int32"}, {"name": "PartitionedCall/onnx_tf_prefix_p2o.Concat.98/axis", "shape": [], "dtype": "int32"}, {"name": "PartitionedCall/strided_slice_101/stack", "shape": [1], "dtype": "int32"}, {"name": "PartitionedCall/strided_slice_101/stack_1", "shape": [1], "dtype": "int32"}, {"name": "PartitionedCall/strided_slice_101/stack_2", "shape": [1], "dtype": "int32"}, {"name": "PartitionedCall/transpose_839/perm", "shape": [4], "dtype": "int32"}, {"name": "PartitionedCall/Const_1718", "shape": [4, 2], "dtype": "int32"}, {"name": "PartitionedCall/transpose_841/perm", "shape": [4], "dtype": "int32"}, {"name": "PartitionedCall/Reshape_1142", "shape": [3, 3, 160, 1], "dtype": "float32"}, {"name": "PartitionedCall/transpose_842/perm", "shape": [4], "dtype": "int32"}, {"name": "PartitionedCall/onnx_tf_prefix_p2o.BatchNormalization.262/mul", "shape": [1, 160, 1, 1], "dtype": "float32"}, {"name": "PartitionedCall/onnx_tf_prefix_p2o.BatchNormalization.262/sub", "shape": [1, 160, 1, 1], "dtype": "float32"}, {"name": "PartitionedCall/transpose_844/perm", "shape": [4], "dtype": "int32"}, {"name": "PartitionedCall/split_169", "shape": [1, 1, 160, 80], "dtype": "float32"}, {"name": "PartitionedCall/transpose_845/perm", "shape": [4], "dtype": "int32"}, {"name": "PartitionedCall/onnx_tf_prefix_p2o.BatchNormalization.263/mul", "shape": [1, 80, 1, 1], "dtype": "float32"}, {"name": "PartitionedCall/onnx_tf_prefix_p2o.BatchNormalization.263/sub", "shape": [1, 80, 1, 1], "dtype": "float32"}, {"name": "PartitionedCall/SelectV2_5", "shape": [1], "dtype": "int32"}, {"name": "PartitionedCall/zeros_99", "shape": [], "dtype": "int32"}, {"name": "PartitionedCall/Const_1726", "shape": [], "dtype": "int32"}, {"name": "PartitionedCall/Shape_537", "shape": [1], "dtype": "int32"}, {"name": "PartitionedCall/ExpandDims_1", "shape": [1, 1], "dtype": "int32"}, {"name": "PartitionedCall/Cast_203", "shape": [1], "dtype": "int32"}, {"name": "PartitionedCall/SelectV2_6", "shape": [1], "dtype": "int32"}, {"name": "PartitionedCall/Const_1725", "shape": [], "dtype": "int32"}, {"name": "PartitionedCall/ones_1", "shape": [1], "dtype": "int32"}, {"name": "PartitionedCall/Const_1719", "shape": [2], "dtype": "int32"}, {"name": "PartitionedCall/onnx_tf_prefix_p2o.Concat.99/axis", "shape": [], "dtype": "int32"}, {"name": "PartitionedCall/strided_slice_102/stack", "shape": [1], "dtype": "int32"}, {"name": "PartitionedCall/strided_slice_102/stack_1", "shape": [1], "dtype": "int32"}, {"name": "PartitionedCall/strided_slice_102/stack_2", "shape": [1], "dtype": "int32"}, {"name": "PartitionedCall/transpose_847/perm", "shape": [4], "dtype": "int32"}, {"name": "PartitionedCall/Const_1727", "shape": [4, 2], "dtype": "int32"}, {"name": "PartitionedCall/transpose_849/perm", "shape": [4], "dtype": "int32"}, {"name": "PartitionedCall/Reshape_1152", "shape": [3, 3, 80, 1], "dtype": "float32"}, {"name": "PartitionedCall/transpose_850/perm", "shape": [4], "dtype": "int32"}, {"name": "PartitionedCall/onnx_tf_prefix_p2o.BatchNormalization.264/mul", "shape": [1, 80, 1, 1], "dtype": "float32"}, {"name": "PartitionedCall/onnx_tf_prefix_p2o.BatchNormalization.264/sub", "shape": [1, 80, 1, 1], "dtype": "float32"}, {"name": "PartitionedCall/transpose_852/perm", "shape": [4], "dtype": "int32"}, {"name": "PartitionedCall/split_170", "shape": [1, 1, 80, 40], "dtype": "float32"}, {"name": "PartitionedCall/transpose_853/perm", "shape": [4], "dtype": "int32"}, {"name": "PartitionedCall/onnx_tf_prefix_p2o.BatchNormalization.265/mul", "shape": [1, 40, 1, 1], "dtype": "float32"}, {"name": "PartitionedCall/onnx_tf_prefix_p2o.BatchNormalization.265/sub", "shape": [1, 40, 1, 1], "dtype": "float32"}, {"name": "PartitionedCall/SelectV2_9", "shape": [1], "dtype": "int32"}, {"name": "PartitionedCall/zeros_100", "shape": [], "dtype": "int32"}, {"name": "PartitionedCall/Const_1735", "shape": [], "dtype": "int32"}, {"name": "PartitionedCall/Shape_541", "shape": [1], "dtype": "int32"}, {"name": "PartitionedCall/ExpandDims_2", "shape": [1, 1], "dtype": "int32"}, {"name": "PartitionedCall/Cast_206", "shape": [1], "dtype": "int32"}, {"name": "PartitionedCall/SelectV2_10", "shape": [1], "dtype": "int32"}, {"name": "PartitionedCall/Const_1734", "shape": [], "dtype": "int32"}, {"name": "PartitionedCall/ones_2", "shape": [1], "dtype": "int32"}, {"name": "PartitionedCall/Const_1728", "shape": [2], "dtype": "int32"}, {"name": "PartitionedCall/onnx_tf_prefix_p2o.Concat.100/axis", "shape": [], "dtype": "int32"}, {"name": "PartitionedCall/strided_slice_103/stack", "shape": [1], "dtype": "int32"}, {"name": "PartitionedCall/strided_slice_103/stack_1", "shape": [1], "dtype": "int32"}, {"name": "PartitionedCall/strided_slice_103/stack_2", "shape": [1], "dtype": "int32"}, {"name": "PartitionedCall/transpose_855/perm", "shape": [4], "dtype": "int32"}, {"name": "PartitionedCall/Const_1736", "shape": [4, 2], "dtype": "int32"}, {"name": "PartitionedCall/transpose_857/perm", "shape": [4], "dtype": "int32"}, {"name": "PartitionedCall/Reshape_1162", "shape": [3, 3, 40, 1], "dtype": "float32"}, {"name": "PartitionedCall/transpose_858/perm", "shape": [4], "dtype": "int32"}, {"name": "PartitionedCall/onnx_tf_prefix_p2o.BatchNormalization.266/mul", "shape": [1, 40, 1, 1], "dtype": "float32"}, {"name": "PartitionedCall/onnx_tf_prefix_p2o.BatchNormalization.266/sub", "shape": [1, 40, 1, 1], "dtype": "float32"}, {"name": "PartitionedCall/transpose_860/perm", "shape": [4], "dtype": "int32"}, {"name": "PartitionedCall/split_171", "shape": [1, 1, 40, 40], "dtype": "float32"}, {"name": "PartitionedCall/transpose_861/perm", "shape": [4], "dtype": "int32"}, {"name": "PartitionedCall/onnx_tf_prefix_p2o.BatchNormalization.267/mul", "shape": [1, 40, 1, 1], "dtype": "float32"}, {"name": "PartitionedCall/onnx_tf_prefix_p2o.BatchNormalization.267/sub", "shape": [1, 40, 1, 1], "dtype": "float32"}, {"name": "PartitionedCall/transpose_863/perm", "shape": [4], "dtype": "int32"}, {"name": "PartitionedCall/split_172", "shape": [1, 1, 40, 17], "dtype": "float32"}, {"name": "PartitionedCall/Const_1260", "shape": [17], "dtype": "float32"}, {"name": "PartitionedCall/transpose_864/perm", "shape": [4], "dtype": "int32"}, {"name": "PartitionedCall/ArithmeticOptimizer/SimplifyAggregation_Const_onnx_tf_prefix_p2o.Add.0", "shape": [], "dtype": "float32"}, {"name": "PartitionedCall/ArithmeticOptimizer/ArithmeticOptimizer/SimplifyAggregation_Const_AddOpsRewrite_Leaf_1_onnx_tf_prefix_p2o.Add.4", "shape": [], "dtype": "float32"}, {"name": "PartitionedCall/ArithmeticOptimizer/SimplifyAggregation_Const_onnx_tf_prefix_p2o.Add.8", "shape": [], "dtype": "float32"}, {"name": "PartitionedCall/ArithmeticOptimizer/ArithmeticOptimizer/SimplifyAggregation_Const_AddOpsRewrite_Leaf_1_onnx_tf_prefix_p2o.Add.12", "shape": [], "dtype": "float32"}, {"name": "PartitionedCall/ArithmeticOptimizer/SimplifyAggregation_Const_onnx_tf_prefix_p2o.Add.16", "shape": [], "dtype": "float32"}, {"name": "PartitionedCall/ArithmeticOptimizer/ArithmeticOptimizer/SimplifyAggregation_Const_AddOpsRewrite_Leaf_1_onnx_tf_prefix_p2o.Add.22", "shape": [], "dtype": "float32"}, {"name": "PartitionedCall/ArithmeticOptimizer/ArithmeticOptimizer/SimplifyAggregation_Const_AddOpsRewrite_Leaf_1_onnx_tf_prefix_p2o.Add.28", "shape": [], "dtype": "float32"}, {"name": "PartitionedCall/ArithmeticOptimizer/SimplifyAggregation_Const_onnx_tf_prefix_p2o.Add.34", "shape": [], "dtype": "float32"}, {"name": "PartitionedCall/ArithmeticOptimizer/ArithmeticOptimizer/SimplifyAggregation_Const_AddOpsRewrite_Leaf_1_onnx_tf_prefix_p2o.Add.40", "shape": [], "dtype": "float32"}, {"name": "PartitionedCall/ArithmeticOptimizer/ArithmeticOptimizer/SimplifyAggregation_Const_AddOpsRewrite_Leaf_1_onnx_tf_prefix_p2o.Add.46", "shape": [], "dtype": "float32"}, {"name": "PartitionedCall/ArithmeticOptimizer/SimplifyAggregation_Const_onnx_tf_prefix_p2o.Add.52", "shape": [], "dtype": "float32"}, {"name": "PartitionedCall/ArithmeticOptimizer/ArithmeticOptimizer/SimplifyAggregation_Const_AddOpsRewrite_Leaf_1_onnx_tf_prefix_p2o.Add.58", "shape": [], "dtype": "float32"}, {"name": "PartitionedCall/ArithmeticOptimizer/ArithmeticOptimizer/SimplifyAggregation_Const_AddOpsRewrite_Leaf_1_onnx_tf_prefix_p2o.Add.64", "shape": [], "dtype": "float32"}, {"name": "PartitionedCall/ArithmeticOptimizer/SimplifyAggregation_Const_onnx_tf_prefix_p2o.Add.70", "shape": [], "dtype": "float32"}, {"name": "PartitionedCall/ArithmeticOptimizer/ArithmeticOptimizer/SimplifyAggregation_Const_AddOpsRewrite_Leaf_1_onnx_tf_prefix_p2o.Add.76", "shape": [], "dtype": "float32"}, {"name": "PartitionedCall/ArithmeticOptimizer/ArithmeticOptimizer/SimplifyAggregation_Const_AddOpsRewrite_Leaf_1_onnx_tf_prefix_p2o.Add.82", "shape": [], "dtype": "float32"}, {"name": "PartitionedCall/ArithmeticOptimizer/SimplifyAggregation_Const_onnx_tf_prefix_p2o.Add.88", "shape": [], "dtype": "float32"}, {"name": "PartitionedCall/ArithmeticOptimizer/ArithmeticOptimizer/SimplifyAggregation_Const_AddOpsRewrite_Leaf_1_onnx_tf_prefix_p2o.Add.96", "shape": [], "dtype": "float32"}, {"name": "PartitionedCall/ArithmeticOptimizer/ArithmeticOptimizer/SimplifyAggregation_Const_AddOpsRewrite_Leaf_1_onnx_tf_prefix_p2o.Add.104", "shape": [], "dtype": "float32"}, {"name": "PartitionedCall/ArithmeticOptimizer/ArithmeticOptimizer/SimplifyAggregation_Const_AddOpsRewrite_Leaf_1_onnx_tf_prefix_p2o.Add.112", "shape": [], "dtype": "float32"}, {"name": "PartitionedCall/ArithmeticOptimizer/SimplifyAggregation_Const_onnx_tf_prefix_p2o.Add.120", "shape": [], "dtype": "float32"}, {"name": "PartitionedCall/ArithmeticOptimizer/ArithmeticOptimizer/SimplifyAggregation_Const_AddOpsRewrite_Leaf_1_onnx_tf_prefix_p2o.Add.128", "shape": [], "dtype": "float32"}, {"name": "PartitionedCall/ArithmeticOptimizer/ArithmeticOptimizer/SimplifyAggregation_Const_AddOpsRewrite_Leaf_1_onnx_tf_prefix_p2o.Add.136", "shape": [], "dtype": "float32"}, {"name": "PartitionedCall/ArithmeticOptimizer/ArithmeticOptimizer/SimplifyAggregation_Const_AddOpsRewrite_Leaf_1_onnx_tf_prefix_p2o.Add.144", "shape": [], "dtype": "float32"}]}]}